nets/ECG5000_SCNN.pth (torch, 393097 bytes, 21 tensors)

conv1.0.weight f4 [128, 1, 7]
-0.25453326 0.08808868 0.26192388 0.10487241 -0.15177977 0.17280275 -0.21290056 -0.012878159
-0.0055685136 0.010532745 -0.029711735 0.0035070316 -0.017151808 -0.069116004 0.0019060342 -0.021715308
-0.0024470412 -0.040286638 -0.018425278 -0.016396537 -0.033270955 -0.049179405 -0.007916844 0.009945337
-0.015068449 -0.033703536 -0.031336386 -0.019026296 0.0818423 0.16773972 -0.0047017033 0.16962141
-0.247266 -0.15615973 -0.010979356 0.03366256 0.008419269 0.01108617 0.05325842 0.071976006
0.036938887 -0.06911893 0.046988305 0.04085731 -0.11328029 -0.043511722 -0.048671365 0.0011205736
-0.08733714 -0.066090964 -0.022131102 0.019717306 -0.014414086 -0.0038882052 -0.036963407 -0.029872209
0.04284482 -0.025576452 -0.0125009455 0.102825046 -0.06482364 -0.1647978 -0.022735322 -0.083992556
0.11524605 0.011490691 -0.17000414 0.23854731 0.067250565 -0.23719504 0.12109969 0.07738236
0.12169741 -0.16636701 -0.1577383 0.0049028504 0.1254072 -0.06869841 -0.00562554 0.050326973
0.0028042898 -0.07688387 -0.061292764 -0.059696756 0.085572444 0.1056032 0.07191031 0.07084492
-0.14501739 -0.1269627 -0.10289485 -0.042515304 -0.022457542 -0.0128920255 -0.05071607 -0.023118109
0.008023636 -0.03158629 0.04106337 0.020888159 -0.12310249 0.011870899 -0.0757263 -0.016151339
-0.027071055 -0.2247157 -0.035915963 -0.041910388 0.16721576 0.011474017 0.04756268 0.09024335
0.041808374 -0.18602803 -0.04749356 -0.039539773 -0.10851181 0.19203499 0.18511754 0.06624271
0.030628169 -0.027098702 0.012923283 0.0039692605 0.015868554 -0.0049980897 0.23085552 -0.10183776
-0.088986054 -0.099404454 -0.026619922 0.10164679 -0.055090874 -0.14385894 -0.07492825 0.16086581
0.26999685 -0.124840856 0.08042866 -0.12459807 0.077287056 0.0032898274 -0.0057529397 0.040214464
-0.056003477 -0.08701352 -0.04338726 -0.17014211 0.16499975 0.28479344 -0.16200641 -0.24159418
0.028946677 0.14501727 -0.052131083 -0.062389012 0.069259465 0.11182427 -0.11404856 0.015129034
-0.13775906 -0.026244577 -0.026535612 -0.10340875 -0.17767106 0.14174245 0.12662213 0.097948804
0.215445 -0.09243053 0.11508921 -0.08699206 -0.11363379 0.02780869 -0.064772844 0.16739486
-0.048518237 0.23593628 -0.11066777 -0.08231526 -0.11413467 -0.07962185 0.12715821 -0.020470481
-0.10281666 -0.09887786 -0.040480033 0.21351549 -0.008985595 0.105431005 0.009153045 0.021574073
0.061570983 0.053249665 -0.2964315 0.046678256 0.2320303 -0.1517149 -0.23530997 -0.19062637
0.21662453 -0.07428804 0.21033189 0.08450466 0.20452334 -0.14014575 -0.02920495 0.08312469
-0.11118538 -0.08951908 -0.20302984 -0.079367705 0.18770511 0.07899444 -0.07101835 0.06368596
0.11487767 -0.022911595 -0.0032637448 0.048593666 0.02111063 0.074968226 0.029034933 -0.025782065
-0.059958063 -0.0015819629 0.05400711 -0.023128236 -0.01024718 -0.018508954 -0.105333716 0.02835811
0.029826337 0.06482158 0.15619412 -0.11425617 -0.0018517065 -0.14029135 -0.14200452 -0.11876195
0.16893184 -0.05317946 0.105061926 0.037041705 0.07507461 -0.20432669 -0.051938646 0.001247836
-0.007116086 0.1712931 0.14075966 -0.022850921 0.10766174 0.08329071 0.0125318235 -0.07403243
00000000: 2f52 82be d667 b43d e31a 863e 59c7 d63d
00000010: 286c 1bbe 34f3 303e 9b02 5abe eafe 52bc
00000020: 1478 b6bb 8991 2c3c 0666 f3bc 3ad6 653b
00000030: f381 8cbc b18c 8dbd e5d3 f93a 4de4 b1bc
00000040: 8a5e 20bb 9a03 25bd 9cf0 96bc 0852 86bc
00000050: 2047 08bd 5870 49bd a7b5 01bc c4f1 223c
00000060: a8e1 76bc b80c 0abd 955a 00bd 09dd 9bbc
00000070: f09c a73d f6c3 2b3e bf10 9abb 3cb1 2d3e
00000080: 4c33 7dbe 56e8 1fbe c2e2 33bc c1e1 093d
00000090: f9f0 093c c4a2 353c 8025 5a3d 2868 933d
000000a0: 3b4d 173d 3a8e 8dbd cf76 403d ff59 273d
000000b0: 7fff e7bd 5939 32bd a05b 47bd 36e0 923a
000000c0: d1dd b2bd b35a 87bd 494c b5bc 3086 a13c
000000d0: 0f29 6cbc 42d1 7ebb f166 17bd 90b6 f4bc
000000e0: 0d7e 2f3d b585 d1bc c4d0 4cbc f095 d23d
000000f0: 42c2 84bd c1c0 28be 6d3f babc 4a04 acbd
00000100: 1f06 ec3d 7443 3c3c 9115 2ebe bf45 743e
00000110: aaba 893d 42e3 72be 1d03 f83d a57a 9e3d
00000120: 7e3c f93d 1d5c 2abe 2686 21be 17a8 a03b
00000130: bf6a 003e c1b1 8cbd 7356 b8bb a823 4e3d
00000140: 2dc8 373b 4a75 9dbd 1f0e 7bbd 9684 74bd
00000150: 9b40 af3d 7e46 d83d b645 933d 2417 913d
00000160: 707f 14be 8302 02be 89ba d2bd 8724 2ebd
00000170: e1f8 b7bc 1339 53bc a7bb 4fbd 3062 bdbc
00000180: 9275 033c a060 01bd 1032 283d a51d ab3c
00000190: 291d fcbd 297e 423c 6416 9bbd d04f 84bc
000001a0: 1ec4 ddbc df1b 66be 9e1c 13bd 3aaa 2bbd
000001b0: 9c3a 2b3e 84fd 3b3c 16d1 423d 81d1 b83d
000001c0: 423f 2b3d 227e 3ebe 9b88 42bd 75f4 21bd
000001d0: 713b debd d2a4 443e 748f 3d3e 42aa 873d
000001e0: ede7 fa3c 19fe ddbc 2dbc 533c 9210 823b
000001f0: c5fe 813c 04c7 a3bb 6465 6c3e 5190 d0bd
00000200: 523e b6bd 9094 cbbd 0612 dabc 312c d03d
00000210: f8a6 61bd c24f 13be fb73 99bd 02ba 243e
00000220: 073d 8a3e 90ac ffbd c8b7 a43d 462d ffbd
00000230: ad48 9e3d 259a 573b 2883 bcbb ecb7 243d
00000240: e763 65bd 2534 b2bd d7b6 31bd bc39 2ebe
00000250: b2f5 283e 72d0 913e 02e5 25be 7764 77be
00000260: 9521 ed3c 687f 143e 6787 55bd 9f8b 7fbd
00000270: e8d7 8d3d 1f04 e53d 4b92 e9bd c5df 773c
00000280: b610 0dbe defe d6bc 3661 d9bc f7c7 d3bd
00000290: 67ef 35be ef24 113e 3ba9 013e 6299 c83d
000002a0: 9d9d 5c3e 384c bdbd e4b3 eb3d e528 b2bd
000002b0: d5b8 e8bd 0dcf e33c a0a7 84bd 8f69 2b3e
000002c0: 0fbb 46bd 4899 713e c9a5 e2bd e794 a8bd
000002d0: 70bf e9bd c810 a3bd c335 023e b6b1 a7bc
000002e0: 8b91 d2bd 7a80 cabd 64ce 25bd cea3 5a3e
000002f0: 5138 13bc 36ec d73d a7f6 153c 1cbc b03c
00000300: db31 7c3d 521c 5a3d dfc5 97be b331 3f3d
00000310: 5a99 6d3e 275b 1bbe 19f5 70be 8f33 43be
00000320: d2d2 5d3e 5424 98bd 3e61 573e c710 ad3d
00000330: 916e 513e 5e82 0fbe 383f efbc 473d aa3d
00000340: 29b5 e3bd c855 b7bd 0ee7 4fbe 898b a2bd
00000350: c535 403e d6c7 a13d 1272 91bd c96d 823d
00000360: fc44 eb3d 19b1 bbbc 8de4 55bb 270a 473d
00000370: 33f0 ac3c f188 993d abda ed3c e934 d3bc
00000380: 9696 75bd de59 cfba 8f36 5d3d 6d77 bdbc
00000390: cae3 27bc 17a0 97bc 34b9 d7bd 444f e83c
000003a0: 5d56 f43c 2dc1 843d 5af1 1f3e 24ff e9bd
000003b0: f6b4 f2ba 89a8 0fbe a269 11be 7739 f3bd
000003c0: 78fc 2c3e b5d2 59bd b52a d73d 0bb9 173d
000003d0: b8c0 993d 043b 51be 9ebd 54bd 6e8e a33a
000003e0: 0e2e e9bb 7567 2f3e 4d23 103e db31 bbbc
000003f0: c27d dc3d 5294 aa3d 4752 4d3c 519e 97bd

conv1.0.bias f4 [128]
1.2256227e-06 -1.9568246e-07 5.7797266e-08 -5.3743136e-08 5.9031798e-08 -9.5433805e-08 1.50085e-06 -2.0093853e-07
-2.7914803e-07 7.969226e-06 8.904561e-07 1.8602198e-06 7.734012e-06 6.589587e-08 4.337129e-08 -3.904949e-07
-4.3024627e-07 -4.3025103e-08 -5.40726e-07 -3.2313656e-07 -1.3498283e-07 3.2101825e-06 -2.3209657e-07 1.07453374e-07
9.3943095e-07 -7.347156e-09 4.4769482e-07 3.1569493e-07 2.5719828e-07 -7.1181256e-07 -1.3999382e-07 5.6844403e-08
1.7868241e-07 -1.925049e-06 1.4145405e-07 -7.1352594e-07 3.6265465e-07 5.8540587e-07 6.733142e-08 -9.9475706e-08
9.705674e-08 3.3548028e-07 6.7716286e-07 -1.1950922e-06 -1.2411138e-06 2.5725146e-07 -5.9762573e-07 2.304831e-06
3.9835558e-07 -2.201587e-07 1.9649829e-07 -5.360824e-08 -3.1375203e-07 9.996712e-08 5.13191e-07 5.09461e-07
1.1006566e-06 6.525102e-07 -1.1353543e-05 -9.237054e-08 -1.0810602e-07 2.9924777e-07 4.9057767e-09 -5.561508e-07
1.4308831e-07 1.6413509e-06 2.3570449e-07 5.4291664e-08 2.6969133e-07 1.1120377e-06 1.1627249e-06 -5.1324893e-08
9.3073754e-07 8.304986e-08 -5.977665e-08 -3.4238906e-07 6.283881e-07 -8.8650086e-07 3.7684433e-07 2.6529545e-07
3.2255475e-08 -1.0548501e-06 6.16293e-07 -3.9727522e-07 -2.508452e-07 8.140845e-07 4.8497463e-07 2.9416853e-07
1.6005617e-07 4.122414e-08 2.0921511e-06 1.116939e-06 3.4091912e-07 -2.5617067e-07 1.2598778e-06 -1.2554483e-07
1.2936667e-06 4.7771575e-08 1.0690253e-06 2.5510387e-06 -5.957144e-07 -1.5685656e-07 -1.7929455e-07 8.3654e-09
-3.1970124e-08 1.09574565e-07 -4.2546805e-08 6.2138673e-07 -6.7964957e-06 -4.0228684e-08 5.3369085e-08 -3.6899992e-09
1.3191567e-06 -9.711019e-08 1.2381286e-08 -4.1920265e-07 3.8017195e-06 -1.3560508e-06 -8.8463077e-07 -2.0253309e-07
8.3859254e-07 -1.2994982e-06 -1.07885384e-07 4.2384283e-07 8.512132e-07 7.0781326e-08 1.4188964e-07 4.6589446e-07
00000000: 1380 a435 c91c 52b4 c43c 7833 34d3 66b3
00000010: 268a 7d33 4af1 ccb3 d070 c935 90c1 57b4
00000020: d0dd 95b4 91b3 0537 ad07 6f35 aaac f935
00000030: 54c1 0137 a382 8d33 3d47 3a33 36a5 d1b4
00000040: 99fc e6b4 9aca 38b3 6826 11b5 8d7b adb4
00000050: ccef 10b4 846e 5736 3836 79b4 1ec1 e633
00000060: 342d 7c35 4572 fcb1 b55a f034 c87c a934
00000070: 1015 8a34 6313 3fb5 3551 16b4 1525 7433
00000080: d9db 3f34 1730 01b6 98e2 1734 2189 3fb5
00000090: e0b2 c234 c924 1d35 d797 9033 599f d5b3
000000a0: 826d d033 0f1c b434 47c6 3535 0e67 a0b5
000000b0: 5894 a6b5 5f1c 8a34 876c 20b5 b2ac 1a36
000000c0: 93dd d534 c364 6cb4 0afd 5234 e23e 66b3
000000d0: c071 a8b4 81ad d633 38c2 0935 e5c1 0835
000000e0: 46ba 9335 2928 2f35 197b 3eb7 3e5d c6b3
000000f0: ea27 e8b3 4da8 a034 ab8f a831 644a 15b5
00000100: d1a3 1934 634c dc35 f515 7d34 512e 6933
00000110: 18ca 9034 5341 9535 ec0e 9c35 5170 5cb3
00000120: ccd7 7935 2559 b233 905e 80b3 98d1 b7b4
00000130: 80ae 2835 e0f7 6db5 1751 ca34 ee6d 8e34
00000140: 4589 0a33 6094 8db5 556f 2535 1749 d5b4
00000150: e7ab 86b4 7687 5a35 342f 0235 37ee 9d34
00000160: e8db 2b34 6c0e 3133 e266 0c36 bbe9 9535
00000170: 9107 b734 d487 89b4 1219 a935 80cd 06b4
00000180: 0da2 ad35 672d 4d33 6e7b 8f35 8332 2b36
00000190: 2fe9 1fb5 676c 28b4 1c84 40b4 6bb7 0f32
000001a0: 864f 09b3 414f eb33 b5bc 36b3 5fcd 2635
000001b0: 740d e4b6 e8c7 2cb3 ee37 6533 2793 7db1
000001c0: e10d b135 e48a d0b3 79b5 5432 c60e e1b4
000001d0: 0b21 7f36 8d01 b6b5 5d77 6db5 df77 59b4
000001e0: a41b 6135 6b6a aeb5 9eae e7b3 848c e334
000001f0: ed7e 6435 7200 9833 545a 1834 0c20 fa34

conv1.1.weight f4 [128]
0.35216933 0.08970938 0.10759246 0.11858068 0.35986653 0.19787893 0.15214609 0.14769784
0.15211208 0.23778877 0.2123676 0.23567583 0.26000893 0.14385176 0.11841158 0.22214384
0.30174828 0.073400296 0.16049282 0.34363005 0.12439685 0.36190414 0.24250482 0.24629359
0.20986837 0.26294187 0.24854872 0.20346974 0.35735008 0.25075844 0.24694438 0.11915658
0.22786565 0.18622684 0.20005399 0.33081535 0.16649173 0.37575892 0.18926096 0.120686814
0.15727556 0.25945014 0.32074395 0.20003372 0.15910122 0.3237142 0.26823488 0.34861165
0.15484448 0.17576298 0.16654922 0.11477022 0.2796418 0.2334316 0.21497026 0.18679085
0.21326524 0.35805362 0.28199863 0.20754252 0.35691187 0.2564866 0.22843988 0.1742632
0.2794483 0.22563668 0.26867038 0.18493173 0.27536672 0.28205517 0.27869946 0.12760355
0.33533815 0.07883073 0.13974272 0.21330874 0.29665476 0.1951902 0.21061143 0.22573628
0.19439057 0.21749373 0.10756147 0.15260814 0.20023277 0.22684005 0.28783408 0.13274217
0.22161172 0.23431219 0.17249557 0.14266007 0.2688204 0.22078143 0.21565959 0.14292376
0.2896358 0.026174912 0.21151964 0.25843257 0.24056706 0.0918783 0.13949226 0.1687799
0.13799615 0.28363758 0.101251185 0.2286356 0.254972 0.13880862 0.10624996 0.15556312
0.27592978 0.1820387 0.1136059 0.23281178 0.29261056 0.13731349 0.26085418 0.33605114
0.19374205 0.29635766 0.236089 0.27801436 0.2963205 0.18249154 0.24598765 0.14132328
00000000: 8a4f b43e 8db9 b73d 7059 dc3d 6dda f23d
00000010: 6d40 b83e c6a0 4a3e 2fcc 1b3e 1a3e 173e
00000020: 45c3 1b3e e67e 733e e476 593e 0155 713e
00000030: e41f 853e e04d 133e c581 f23d ad79 633e
00000040: c07e 9a3e e552 963d 3b58 243e 47f0 af3e
00000050: c7c3 fe3d 804b b93e 2f53 783e 6334 7c3e
00000060: bce7 563e 51a0 863e 8e83 7e3e 5f5a 503e
00000070: 97f6 b63e 6963 803e fdde 7c3e 5d08 f43d
00000080: 9d55 693e 40b2 3e3e f4da 4c3e a160 a93e
00000090: cf7c 2a3e 7963 c03e a0cd 413e a62a f73d
000000a0: d80c 213e a6d6 843e 8d38 a43e a4d5 4c3e
000000b0: 6eeb 223e debd a53e 1556 893e 3a7d b23e
000000c0: 8d8f 1e3e 36fb 333e e18b 2a3e a60c eb3d
000000d0: 362d 8f3e b108 6f3e 2a21 5c3e 1a46 3f3e
000000e0: 3462 5a3e ce52 b73e 2062 903e 0786 543e
000000f0: 27bd b63e 3652 833e 25ec 693e 0d72 323e
00000100: d913 8f3e 4d0d 673e 2a8f 893e be5e 3d3e
00000110: defc 8c3e 8969 903e b2b1 8e3e 81aa 023e
00000120: 71b1 ab3e 0172 a13d b718 0f3e 9b6d 5a3e
00000130: 22e3 973e f1df 473e 86aa 573e 6927 673e
00000140: 520e 473e adb6 5e3e 3049 dc3d 4f45 1c3e
00000150: d209 4d3e c248 683e fd5e 933e 90ed 073e
00000160: 2fee 623e 89ef 6f3e aea2 303e 7b15 123e
00000170: d4a2 893e 8714 623e ded5 5c3e 9b5a 123e
00000180: 254b 943e c56c d63c 9b98 583e 4651 843e
00000190: 3657 763e b12a bc3d 0fd7 0e3e a3d4 2c3e
000001a0: dd4e 0d3e f238 913e c85c cf3d 731f 6a3e
000001b0: b18b 823e d923 0e3e 9499 d93d f04b 1f3e
000001c0: ab46 8d3e 5a68 3a3e 36aa e83d 3666 6e3e
000001d0: 0dd1 953e e89b 0c3e ae8e 853e e50e ac3e
000001e0: 5164 463e 31bc 973e 51c1 713e e657 8e3e
000001f0: 52b7 973e 10df 3a3e 30e4 7b3e 0db7 103e

conv1.1.bias f4 [128]
3.177086e-05 -0.03590035 -0.05324552 -0.05687917 0.055761166 -0.034483183 -0.009737206 -0.046338115
-0.010898431 -0.019826762 -0.033354834 -0.08567274 0.06360022 -0.08476974 -0.016032688 0.00902927
0.029331716 -0.05875965 0.023085276 -0.03363211 -0.005493497 -0.009514486 -0.046267282 -0.008034078
0.035251446 0.03727548 0.023476042 0.042260338 0.0072430135 0.04941957 -0.019576829 -0.07760295
-0.046620257 0.017738564 0.016156122 0.00072204496 0.02482689 -0.037400424 -0.039626133 -0.08684957
-0.05667269 0.040759493 -0.023501944 0.034960512 -0.0113779055 0.02922486 0.043324783 -0.012569066
0.030616036 -0.032486066 -0.03211115 -0.06664169 -0.060032014 -0.0004010344 -0.01771972 -0.061186295
0.021061772 0.072033316 0.041790154 -0.030200979 0.030946262 -0.06497524 0.027054511 -0.02529814
-0.020751381 0.0276425 -0.021263136 -0.049937326 0.022100817 0.012711115 0.020838264 -0.07149852
-0.016998725 0.012817083 -0.025913343 0.014365301 -0.024922201 0.008794175 -0.003403595 -0.007159594
-0.04680337 0.0011505996 -0.022614878 -0.036951557 -0.04159204 -0.047869176 -0.026031151 -0.01167071
0.017720852 -0.03887065 -0.025524978 -0.06264639 -0.026140638 -0.042742196 -0.05651255 -0.033293605
-0.084691145 -0.012986185 -0.050622314 0.02798404 0.049203143 -0.060530815 -0.0946711 -0.049257174
-0.0020103422 0.02961496 -0.034842614 -0.05692897 -0.029754937 -0.055895615 -0.06081143 -0.043890662
0.030926997 0.04849573 -0.03893841 -0.0648266 -0.00424089 -0.022258366 0.026602823 0.010267327
-0.054986063 0.038892787 -0.014206477 0.009904651 -0.03214062 -0.056458343 -0.043534216 0.013287597
00000000: b341 0538 3f0c 13bd f917 5abd 22fa 68bd
00000010: d265 643d 3d3e 0dbd cd88 1fbc 09cd 3dbd
00000020: 558f 32bc bc6b a2bc 149f 08bd 3175 afbd
00000030: d540 823d c29b adbd fc56 83bc 81ef 133c
00000040: 1149 f03c f5ad 70bd 551d bd3c d3c1 09bd
00000050: cb02 b4bb a6e2 1bbc c382 3dbd 5ea1 03bc
00000060: d263 103d 2cae 183d d450 c03c 2d19 2d3d
00000070: cd56 ed3b 2d6c 4a3d 965f a0bc 4cee 9ebd
00000080: e2f4 3ebd 7750 913c d859 843c 9e47 3d3a
00000090: c361 cb3c 3031 19bd 034f 22bd 30de b1bd
000000a0: 9f21 68bd 6df3 263d 2687 c0bc c132 0f3d
000000b0: 656a 3abc f968 ef3c 5475 313d 7cee 4dbc
000000c0: 7bce fa3c 1c10 05bd fb86 03bd 707b 88bd
000000d0: 21e4 75bd ed41 d2b9 f228 91bc 7b9e 7abd
000000e0: bd89 ac3c 3486 933d 272c 2b3d 0b68 f7bc
000000f0: 0483 fd3c bd11 85bd 6ca1 dd3c 0b3e cfbc
00000100: cdfe a9bc 8672 e23c 0730 aebc 158b 4cbd
00000110: c60c b53c 4842 503c 02b5 aa3c d16d 92bd
00000120: e940 8bbc befe 513c 3848 d4bc 705c 6b3c
00000130: a529 ccbc 7215 103c d90e 5fbb 079b eabb
00000140: e4b4 3fbd b7cf 963a d642 b9bc 845a 17bd
00000150: 6a5c 2abd 7812 44bd 483f d5bc 8136 3fbc
00000160: 522b 913c d536 1fbd c219 d1bc c04c 80bd
00000170: e424 d6bc 7112 2fbd b479 67bd e05e 08bd
00000180: 8d72 adbd 02c4 54bc 5859 4fbd c93e e53c
00000190: 3c89 493d 29ef 77bd ece2 c1bd e4c1 49bd
000001a0: f2bf 03bb 139b f23c 21b7 0ebd 5a2e 69bd
000001b0: a0c0 f3bc cdf2 64bd 6815 79bd b2c6 33bd
000001c0: 9d5a fd3c 75a3 463d e27d 1fbd cfc3 84bd
000001d0: 2af7 8abb 2d57 b6bc 2aee d93c 4a38 283c
000001e0: 1139 61bd 0b4e 1f3d 49c2 68bc 1e47 223c
000001f0: e2a5 03bd dd40 67bd ef50 32bd 39b4 593c

conv1.1.running_mean f4 [128]
-0.0077598677 -0.009514827 -0.008334748 -0.008920146 -0.015073732 0.0048669814 -0.014955341 -0.008925202
-0.014984634 -0.009427775 0.0056540337 -0.016212508 -0.018423973 -0.008829402 -0.010860154 0.011655239
0.019435732 0.0037995947 -0.0023654867 -0.0022472003 -0.01081195 0.0034805338 -0.015376814 0.01532951
-0.007783112 -0.015582671 0.009556445 -0.009157364 0.014350386 -0.010734416 0.013232648 0.0065199607
-0.013656004 -0.010334412 0.012921139 0.011952585 -0.011978548 0.00361127 0.012288881 -0.01057703
0.01600333 -0.011824545 0.0031711096 0.010462648 0.0024354407 0.025472706 -0.010213264 0.0023840766
-0.008489088 -0.010764496 -0.003494406 -0.010478828 0.012715742 -0.011154519 0.008869111 -0.013265554
-0.012104831 -0.011712074 -0.0079010315 0.008533993 -0.0138242785 -0.0119225625 -0.01238129 0.0069244117
0.0012856639 -0.010395515 0.0036088855 -0.011736182 0.01507843 0.016541746 0.011517752 -0.009490791
0.0027960525 -0.0022887813 -0.006263319 0.019783007 0.011446184 -0.011164452 -0.0025200162 -0.016334495
-0.009324875 -0.005604445 0.004908031 0.007518052 0.010420954 0.017206788 0.011592031 -0.008272418
0.016039206 0.0022955541 0.0084316665 -0.005680661 0.010782215 -0.010369415 0.0049281386 0.005945826
-0.011129134 -0.007365434 -0.013076017 0.010547094 -0.008057714 0.0008075209 -0.008420663 0.006442002
0.0077109584 -0.013161384 -0.0072558303 -0.0046841307 0.012612904 -0.01137081 -0.008558834 -0.013519062
-0.014129874 -0.008060339 -0.0004383573 -0.015700337 0.0011022396 -0.008621386 0.012030741 0.01716356
0.0071056196 -0.014344835 0.018766942 0.019351391 0.0020960406 -0.012504909 0.01134773 -0.0070082513
00000000: 7d46 febb 14e4 1bbc 788e 08bc ce25 12bc
00000010: d0f7 76bc 337b 9f3b 3f07 75bc 033b 12bc
00000020: 1c82 75bc f476 1abc 7945 b93b 18d0 84bc
00000030: dfed 96bc 32a9 10bc caee 31bc 9ef5 3e3c
00000040: af37 9f3c 9f02 793b 4806 1bbb c445 13bb
00000050: 9b24 31bc ab19 643b 08ef 7bbc a028 7b3c
00000060: 7a09 ffbb 764e 7fbc a392 1c3c c508 16bc
00000070: e21d 6b3c 67df 2fbc c0cd 583c 65a5 d53b
00000080: 6fbd 5fbc aa51 29bc 2fb3 533c c6d4 433c
00000090: ac41 44bc 0fab 6c3b 4d57 493c 474b 2dbc
000000a0: 6a19 833c bdbb 41bc 64d2 4f3b 876b 2b3c
000000b0: ea9b 1f3b 23ac d03c 8955 27bc 2b3e 1c3b
000000c0: d115 0bbc 925d 30bc 6702 65bb 64af 2bbc
000000d0: b055 503c 72c1 36bc bf4f 113c c457 59bc
000000e0: 5753 46bc 00e4 3fbc 5473 01bc 29d2 0b3c
000000f0: 3a7f 62bc da56 43bc e5da 4abc 2de6 e23b
00000100: b983 a83a f351 2abc 0d83 6c3b 1d49 40bc
00000110: 850b 773c 8e82 873c f4b4 3c3c 437f 1bbc
00000120: fa3d 373b 61ff 15bb 873c cdbb f90f a23c
00000130: c688 3b3c 1beb 36bc db26 25bb ebcf 85bc
00000140: 5cc7 18bc 7ea5 b7bb 8cd3 a03b fe59 f63b
00000150: a6bc 2a3c 40f5 8c3c 81ec 3d3c 0989 07bc
00000160: a764 833c 0271 163b f924 0a3c d724 babb
00000170: e3a7 303c 7be4 29bc 397c a13b 34d5 c23b
00000180: f956 36bc bd59 f1bb ca3c 56bc b8cd 2c3c
00000190: 8104 04bc cfaf 533a d2f6 09bc 6e17 d33b
000001a0: 35ac fc3b d8a2 57bc 51c2 edbb 567d 99bb
000001b0: 5ba6 4e3c a24c 3abc 5a3a 0cbc 0e7f 5dbc
000001c0: fd80 67bc 830f 04bc 52d3 e5b9 fe9d 80bc
000001d0: 0679 903a b740 0dbc 961c 453c 989a 8c3c
000001e0: 42d6 e83b 9906 6bbc 21bd 993c cf86 9e3c
000001f0: ba5d 093b 64e1 4cbc d4eb 393c 79a5 e5bb

conv1.1.running_var f4 [128]
0.017746855 0.009079221 0.012062454 0.014046184 0.03690399 0.018462341 0.034545712 0.01420535
0.018647345 0.0056250864 0.019079031 0.030100936 0.037712757 0.021630395 0.024247097 0.03420195
0.031795226 0.0073885303 0.012074695 0.016189016 0.0110533275 0.006903688 0.016243147 0.021792423
0.01815141 0.03472331 0.0054038162 0.014911223 0.02366538 0.020042822 0.030056113 0.013584258
0.01605667 0.015343793 0.024961665 0.03550992 0.020120757 0.003790798 0.016327472 0.020854587
0.018709576 0.016355671 0.007430834 0.0076074665 0.013727497 0.061326005 0.029274011 0.00260682
0.025171036 0.031518012 0.0072999187 0.008520429 0.019797865 0.021289773 0.015736157 0.024875756
0.027427161 0.029531632 0.024208372 0.023980193 0.040262647 0.013078082 0.032701336 0.0122046685
0.013189294 0.020102868 0.016098628 0.027757633 0.033060715 0.0332289 0.030962804 0.015673447
0.014311362 0.0048509543 0.0148314135 0.021329777 0.030199245 0.03260922 0.017330443 0.034631167
0.020128537 0.013092813 0.006247608 0.012896137 0.015126155 0.042290628 0.035039067 0.012723589
0.032861553 0.014112191 0.011786727 0.012893534 0.02010975 0.025268609 0.010335889 0.021425998
0.012746909 0.0024925414 0.024746 0.016161485 0.015487033 0.0041192137 0.0093241 0.019941354
0.014483404 0.03290583 0.009203229 0.005766509 0.02244347 0.01939231 0.013041701 0.028309047
0.022810094 0.021738324 0.008472989 0.027043894 0.0035503933 0.026306134 0.025569731 0.048060913
0.007494065 0.035477065 0.04557333 0.026650317 0.00720488 0.024770219 0.015523871 0.013973025
00000000: da61 913c 03c1 143c 99a1 453c f721 663c
00000010: a328 173d 563e 973c ce7f 0d3d 8ebd 683c
00000020: 51c2 983c a552 b83b a14b 9c3c 3d96 f63c
00000030: b178 1a3d 3a32 b13c d9a1 c63c 5817 0c3d
00000040: b63b 023d 7c1b f23b f1d4 453c d49e 843c
00000050: 0419 353c 5538 e23b 5910 853c 0686 b23c
00000060: 44b2 943c 083a 0e3d 7f12 b13b 344e 743c
00000070: e6dd c13c d830 a43c 3d38 f63c 8290 5e3c
00000080: 4789 833c 8864 7b3c 687c cc3c da72 113d
00000090: 49d4 a43c 096f 783b 31c1 853c 3dd7 aa3c
000000a0: d344 993c 54fc 853c 5b7e f33b 0e48 f93b
000000b0: 4ce9 603c fa30 7b3d 0dd0 ef3c 2fd7 2a3b
000000c0: 7d33 ce3c 0819 013d 2834 ef3b 4599 0b3c
000000d0: 222f a23c e467 ae3c 1de9 803c 3ec8 cb3c
000000e0: edae e03c 52ec f13c a350 c63c 1c72 c43c
000000f0: 72ea 243d 7445 563c d6f1 053d 17f6 473c
00000100: e917 583c c5ae a43c 45e1 833c fa63 e33c
00000110: ac6a 073d 071b 083d b5a5 fd3c 9a65 803c
00000120: 347a 6a3c c1f4 9e3b 75ff 723c c9bb ae3c
00000130: 6864 f73c 3f91 053d 93f8 8d3c 69d9 0d3d
00000140: 9ae4 a43c 3d83 563c bcb8 cc3b 524a 533c
00000150: b1d3 773c f038 2d3d 2085 0f3d 9a76 503c
00000160: d699 063d d236 673c 1e1d 413c 673f 533c
00000170: 34bd a43c 1d00 cf3c dc57 293c 9385 af3c
00000180: 69d8 503c e859 233b 20b8 ca3c 1765 843c
00000190: 53bd 7d3c 78fa 863b 1cc4 183c 0d5c a33c
000001a0: cd4b 6d3c 43c8 063d 24c9 163c fcf4 bc3b
000001b0: 5edb b73c 9fdc 9e3c dcac 553c 60e8 e73c
000001c0: 3cdc ba3c 9214 b23c 4bd2 0a3c 288b dd3c
000001d0: b7ad 683b f67f d73c 9d77 d13c 85db 443d
000001e0: c690 f53b 6650 113d 1aab 3a3d c451 da3c
000001f0: ea16 ec3b eaea ca3c d657 7e3c 1def 643c

conv2.1.weight f4 [64, 128, 5]
-0.0046118195 -0.02897289 -0.003586193 -0.025027901 -0.06195846 0.0005283184 -0.0032815977 -0.0045370692
-0.0034558345 -0.0040543005 0.0054502883 0.004645663 -0.00053579145 -0.007489368 -0.006149682 0.000611173
-0.0015266476 -0.009253325 -0.008159538 -0.008077005 0.014356043 0.008472185 -0.00070107065 -0.019595359
-0.02322223 0.008650171 0.011253312 0.008322057 0.0064206216 -0.0043993546 -0.009112243 -0.0043759807
-0.00028605526 -0.0020984907 0.0045129475 -0.006119832 -0.0063376557 -0.0060421536 0.0012075291 0.0028983755
0.002281957 -0.0077371276 -0.0080405595 -0.0029194856 0.012637704 -0.001046777 -0.0014965973 -0.0075797983
-0.0033567906 0.004322815 -0.00084217737 0.010016595 -0.0107528595 -0.0043211514 -0.0069409823 -0.002246397
-0.0012554982 -0.0040191524 -0.0010485385 0.009707174 -0.0046321386 -0.014673692 0.0037780046 -0.023442196
-0.0010094779 0.008555929 0.00043480296 -0.007256282 -0.003643654 -0.0038727648 -0.0013618007 -0.0037978063
-0.0018323818 -0.0110053755 0.001345266 0.008782954 -0.013492562 -0.022144133 -0.017993331 -0.010583267
-0.020345543 -0.011418315 -0.03888693 -0.018595526 -0.023148604 0.0018148131 0.0003794199 -0.0032192678
0.0022875622 -0.002187795 -0.006810354 -0.010524435 -0.004610988 -0.0034849616 -0.010063908 0.030754417
-0.03061432 0.013470816 -0.033453472 -0.0190482 0.0012851869 -0.0039420403 -0.002050938 9.088671e-06
0.0015174935 0.004503318 0.014665369 -0.01238323 -0.009727756 -0.008188863 0.002427565 -0.004922616
0.002421542 -0.0105770575 -0.0019029261 -0.019190254 -0.0007103159 -0.024810387 -0.015065517 -0.022566786
-0.0056555844 0.00037433996 -0.025747944 -0.012403855 0.007533593 0.021077072 0.015752053 -0.022132704
-0.011768485 -0.026994618 0.006897694 0.011043555 -0.03417993 -0.028917758 0.013637297 -0.005257527
-0.0050429995 -0.032161828 -0.01102197 -0.0022173864 -0.009210728 -0.022612281 -0.020905314 -0.042525675
-0.019382427 0.01057725 -0.012545655 -0.023011385 -0.008144169 -0.008797688 0.0027206936 0.00097323407
-0.008768305 -0.019324057 -0.010793286 0.008303249 0.007809329 0.003828573 -0.0016032887 -0.005341297
-0.0074957623 -0.017148595 0.0049595824 -0.0024242145 7.484e-05 0.0027429454 0.018617483 -0.0074079093
0.01361006 -0.0051780757 -0.00050678966 0.0017061697 -0.0069572465 -0.02245599 -0.006745954 -0.013688079
-0.0075163837 -0.028931651 -0.03197048 -0.024796644 -0.006548801 -0.010896214 -0.003645617 -0.012101744
-0.007950148 -0.008551829 -0.014898854 -0.035926726 0.010616063 0.006518538 -0.0070129926 -0.0037015025
-0.006917812 -0.018022796 -0.012448503 0.0021863342 -0.0025500576 0.007594129 -0.008287719 -0.008486167
-0.0026173398 0.003595891 -0.011870579 -0.010576807 -0.008218423 0.009527611 0.013747436 0.017949563
-0.0003251577 -0.010984255 0.0055553946 0.0127661815 -0.030653553 -0.0017866855 -0.007188024 -0.0094789835
-0.0025779465 -0.021860125 -0.024600593 -0.014298255 0.0134588685 0.006081746 -0.009383266 0.013415954
-0.007679304 0.0063744662 -0.003387608 -0.026915802 -0.024383636 -0.033924177 -0.00025226665 -0.008259269
-0.02383542 0.0020648886 -0.010804587 -0.0031138405 0.015869234 0.007533941 -0.020429576 -0.012541512
-0.00068096776 0.011487287 0.01630177 -0.002275781 -0.012358766 -0.008006914 -0.0070598368 0.004780412
-0.0028863328 -0.001821174 -0.020542474 -0.0037913567 -0.01374253 -0.010072888 -0.004853622 0.0057765846
00000000: bf1e 97bb 8e58 edbc 5606 6bbb 5007 cdbc
00000010: 27c8 7dbd d97e 0a3a 1310 57bb b2ab 94bb
00000020: 487b 62bb f0d9 84bb 5598 b23b a53a 983b
00000030: 5b74 0cba 5f69 f5bb 4683 c9bb 2037 203a
00000040: cb19 c8ba 429b 17bc 95af 05bc 6a55 04bc
00000050: 9c35 6b3c ebce 0a3c 0ec8 37ba 7286 a0bc
00000060: 8c3c bebc 72b9 0d3c d05f 383c 3d59 083c
00000070: 1464 d23b 7628 90bb 844b 15bc 6364 8fbb
00000080: b0f9 95b9 d586 09bb 59e1 933b df88 c8bb
00000090: 1cac cfbb 42fd c5bb f445 9e3a acf2 3d3b
000000a0: e38c 153b bb87 fdbb 8dbc 03bc d754 3fbb
000000b0: 5f0e 4f3c 0234 89ba 7929 c4ba f55f f8bb
000000c0: 9afd 5bbb 67a6 8d3b 91c5 5cba a51c 243c
000000d0: c32c 30bc 7298 8dbb 2e71 e3bb 4a38 13bb
000000e0: 878f a4ba 18b3 83bb 1d6f 89ba d70a 1f3c
000000f0: 32c9 97bb ed69 70bc 6698 773b d909 c0bc
00000100: 7550 84ba 2b2e 0c3c 44f6 e339 1bc6 edbb
00000110: 5fca 6ebb 36ce 7dbb 737e b2ba 9ee4 78bb
00000120: 882c f0ba e44f 34bc a353 b03a 61e6 0f3c
00000130: e80f 5dbc 9d67 b5bc c066 93bc 7065 2dbc
00000140: b2ab a6bc e213 3bbc e747 1fbd a555 98bc
00000150: 24a2 bdbc 06df ed3a e0ec c639 5afa 52bb
00000160: edea 153b 1c61 0fbb 6429 dfbb ae6e 2cbc
00000170: c517 97bb f463 64bb 17e3 24bc b0f0 fb3c
00000180: e2ca fabc b3b4 5c3c 8206 09bd f90a 9cbc
00000190: b773 a83a 3b2c 81bb 0869 06bb 8b7b 1837
000001a0: a2e6 c63a 9290 933b 0447 703c 08e3 4abc
000001b0: 2a61 1fbc 952a 06bc c817 1f3b e54d a1bb
000001c0: bcb2 1e3b 654b 2dbc 9b6b f9ba e134 9dbc
000001d0: 7e34 3aba 273f cbbc 5cd5 76bc fbdd b8bc
000001e0: 7b52 b9bb 0f43 c439 5aed d2bc 8a39 4bbc
000001f0: 5cdc f63b d3a9 ac3c 730a 813c a54f b5bc
00000200: 9bd0 40bc d123 ddbc 0d06 e23b 07f0 343c
00000210: 4100 0cbd efe4 ecbc f86e 5f3c 5547 acbb
00000220: bf3f a5bb 1fbc 03bd 7e95 34bc 9251 11bb
00000230: 98e8 16bc 643d b9bc 9f41 abbc 672f 2ebd
00000240: e5c7 9ebc 344c 2d3c 4a8c 4dbc 5f82 bcbc
00000250: 1f6f 05bc 2e24 10bc aa4d 323b a220 7f3a
00000260: f0a8 0fbc 7c4d 9ebc 53d6 30bc 5a0a 083c
00000270: 66e5 ff3b cce8 7a3b 7125 d2ba 0c06 afbb
00000280: 039f f5bb 367b 8cbc fe83 a23b 92df 1ebb
00000290: 6bf3 9c38 fdc2 333b b183 983c 0cbe f2bb
000002a0: bbfc 5e3c d9ac a9bb 14da 04ba 8ea1 df3a
000002b0: 9df9 e3bb a0f5 b7bc 2a0d ddbb f743 60bc
000002c0: ff4b f6bb 1202 edbc 7af3 02bd 5522 cbbc
000002d0: 5397 d6bb 0986 32bc 4eeb 6ebb 6546 46bc
000002e0: 5641 02bc f81c 0cbc 531a 74bc e727 13bd
000002f0: ffee 2d3c 7699 d53b 3fcd e5bb e894 72bb
00000300: d0ae e2bb 8ba4 93bc cef4 4bbc 9a48 0f3b
00000310: de1e 27bb 2cd8 f83b 37c9 07bc 9009 0bbc
00000320: ad87 2bbb 0aa9 6b3b d17c 42bc 584a 2dbc
00000330: 91a6 06bc b219 1c3c ed3c 613c f60a 933c
00000340: ee79 aab9 4ef7 33bc 070a b63b 3f29 513c
00000350: 291d fbbc 382f eaba 8489 ebbb bd4d 1bbc
00000360: c4f2 28bb 0114 b3bc 2f87 c9bc 3a43 6abc
00000370: 9682 5c3c 6249 c73b 45bc 19bc 97ce 5b3c
00000380: aca2 fbbb e6e0 d03b a202 5ebb 877e dcbc
00000390: 31c0 c7bc 14f4 0abd a842 84b9 e351 07bc
000003a0: 8042 c3bc 1553 073b b905 31bc 9311 4cbb
000003b0: 3200 823c 47df f63b ed5b a7bc ea7a 4dbc
000003c0: f982 32ba 2c35 3c3c 4a8b 853c 4525 15bb
000003d0: 6c7c 4abc 6e2f 03bc 3456 e7bb 01a5 9c3b
000003e0: a128 3dbb 76b4 eeba b148 a8bc 6978 78bb
000003f0: 5928 61bc c108 25bc 220b 9fbb 8149 bd3b

conv2.1.bias f4 [64]
-5.7653614e-07 1.0535399e-07 1.3392446e-06 8.1804853e-07 -4.0357034e-07 8.1690115e-07 2.8311886e-05 1.7781308e-06
-2.8555155e-06 -4.859922e-07 4.1890112e-07 3.7607737e-07 5.4285815e-06 2.5932404e-06 1.1442701e-06 1.6446019e-06
-9.747843e-07 -1.4783861e-06 -9.099898e-07 -1.114388e-05 4.1064336e-06 3.099983e-06 -4.611868e-06 -1.3824571e-06
9.742996e-07 -1.6006493e-06 -4.718095e-06 8.779692e-07 -4.5727384e-07 8.254187e-07 -2.4926776e-05 -3.6399601e-06
-7.281884e-07 2.0741093e-06 8.9237227e-07 1.1956523e-05 -6.3873074e-08 -2.9285695e-05 7.1829786e-06 1.9732868e-06
-7.4219747e-06 -3.9849688e-06 -7.8638495e-06 3.4167388e-06 -4.2698656e-07 3.5809448e-06 -2.111266e-07 -1.718028e-06
1.3579401e-05 -5.5456013e-07 -9.526162e-07 -5.489403e-06 6.776779e-07 1.3279669e-05 -2.5983613e-07 9.835298e-07
-5.669975e-07 7.655829e-06 -1.4360327e-07 5.4304996e-06 -4.5077763e-06 4.1760823e-06 -1.3159107e-06 -2.6368134e-06
00000000: 43c3 1ab5 f83e e233 18c0 b335 de97 5b35
00000010: 49aa d8b4 0549 5b35 507f ed37 1ca8 ee35
00000020: 62a1 3fb6 2175 02b5 55e5 e034 aee7 c934
00000030: 2927 b636 8807 2e36 d294 9935 17bc dc35
00000040: 55d5 82b5 f66c c6b5 0646 74b5 9af6 3ab7
00000050: ffc9 8936 4d09 5036 a5bf 9ab6 dd8c b9b5
00000060: aec4 8235 e4d5 d6b5 2150 9eb6 96ad 6b35
00000070: 3d7f f5b4 5792 5d35 d819 d1b7 0a46 74b6
00000080: ba78 43b5 ed30 0b36 5b8b 6f35 e098 4837
00000090: 982a 89b3 8daa f5b7 5105 f136 cf6c 0436
000000a0: 470a f9b6 9fb6 85b6 faee 03b7 204b 6536
000000b0: 963c e5b4 2a50 7036 0ab2 62b4 fe96 e6b5
000000c0: 15d3 6337 15dd 14b5 49b7 7fb5 9d31 b8b6
000000d0: ace9 3535 becb 5e37 9b7f 8bb4 d401 8435
000000e0: c633 18b5 8971 0037 5e31 1ab4 a337 b636
000000f0: 8141 97b6 4620 8c36 599e b0b5 1cf4 30b6

conv2.2.weight f4 [64]
0.1830049 0.24478582 0.22160617 0.4392511 0.20094343 0.29695508 0.38211915 0.5219573
0.3567022 0.23269637 0.4143777 0.11208663 0.26611307 0.5119059 0.50737906 0.24693885
0.545376 0.33864012 0.50727046 0.14187181 0.40658453 0.37969905 0.5511187 0.58920574
0.2899197 0.2107766 0.442768 0.15380089 0.33045676 0.4479488 0.32242677 0.17361067
0.15114704 0.42127866 0.43178013 0.23345485 0.13128097 0.43768597 0.4079462 0.26387286
0.27611402 0.3472706 0.22110215 0.39256433 0.45770928 0.41718403 0.36014172 0.34712416
0.4747524 0.4345288 0.32868513 0.5858179 0.24769256 0.4653431 0.18788786 0.15607096
0.3011138 0.5046927 0.09886097 0.3406308 0.26550317 0.48406765 0.63269866 0.33377922
00000000: a365 3b3e 22a9 7a3e baec 623e 85e5 e03e
00000010: 1dc4 4d3e 7f0a 983e 1fa5 c33e fe9e 053f
00000020: aca1 b63e f547 6e3e 5029 d43e ad8d e53d
00000030: f93f 883e 440c 033f 98e3 013f 8add 7c3e
00000040: c39d 0b3f 3d62 ad3e 7adc 013f d846 113e
00000050: d92b d03e ea67 c23e 1d16 0d3f 30d6 163f
00000060: 5b70 943e d2d5 573e 7db2 e23e fb7d 1d3e
00000070: a131 a93e 8c59 e53e 1f15 a53e ffc6 313e
00000080: 4ac6 1a3e d6b1 d73e 4912 dd3e ca0e 6f3e
00000090: 856e 063e 6018 e03e 53de d03e 581a 873e
000000a0: d15e 8d3e 74cd b13e 9a68 623e 31fe c83e
000000b0: df58 ea3e 2599 d53e 7f64 b83e 42ba b13e
000000c0: bf12 f33e 8f7a de3e 6b49 a83e 29f8 153f
000000d0: 1ea3 7d3e 7341 ee3e ad65 403e 11d1 1f3e
000000e0: 972b 9a3e 8a33 013f 9f77 ca3d 2967 ae3e
000000f0: 08f0 873e b7d7 f73e 8af8 213f 1ce5 aa3e

conv2.2.bias f4 [64]
-0.044232763 -0.0018488624 0.005743321 -0.06731456 -0.025525654 0.009071581 -0.01631442 0.081502505
-0.09552467 -0.042845484 -0.069303006 -0.0022513135 -0.046444133 -0.22007756 0.06749724 -0.1032277
-0.0025385686 0.076796405 -0.2246486 -0.005092389 -0.025557322 0.00430983 0.045970555 -0.16090544
-0.07761423 -0.08495307 -0.007361241 -0.023036726 -0.064960994 -0.078629114 -0.00044816072 -0.082571484
-0.08913745 -0.06574964 -0.17817292 -0.07943684 0.019626299 -0.073889524 0.03165108 -0.00068037986
-0.060272254 -0.07054746 -0.05908915 -0.050904986 -0.09187027 -0.002726226 -0.13865699 0.008219491
-0.04470278 -0.034817766 0.07115089 0.052877907 -0.13240351 -0.06518723 0.038476218 -0.05467181
-0.08149931 0.033308227 -0.039844714 0.01593325 0.025755573 -0.19860153 -0.038139947 -0.06717718
00000000: 6a2d 35bd 8755 f2ba 7832 bc3b 37dc 89bd
00000010: 2d1b d1bc f8a0 143c d2a5 85bc c9ea a63d
00000020: 70a2 c3bd bf7e 2fbd bcee 8dbd c68a 13bb
00000030: 343c 3ebd 035c 61be fe3b 8a3d 0b69 d3bd
00000040: 1d5e 26bb 6f47 9d3d 480a 66be 0ede a6bb
00000050: 975d d1bc 7939 8d3b 9f4b 3c3d 65c4 24be
00000060: 36f4 9ebd e0fb adbd 9136 f1bb 84b7 bcbc
00000070: 450a 85bd 4d08 a1bd 1df7 eab9 3d1b a9bd
00000080: b28d b6bd bfa7 86bd f672 36be c8af a2bd
00000090: 55c7 a03c 6453 97bd 90a4 013d 855b 32ba
000000a0: 0ae0 76bd 307b 90bd 7707 72bd bf81 50bd
000000b0: 7b26 bcbd 7caa 32bb 19fc 0dbe 0bab 063c
000000c0: 431a 37bd 139d 0ebd 8fb7 913d 8196 583d
000000d0: c994 07be e280 85bd 3d99 1d3d 8cef 5fbd
000000e0: 1ce9 a6bd 356e 083d 3634 23bd 7286 823c
000000f0: 5afd d23c 335e 4bbe a238 1cbd 3094 89bd

conv2.2.running_mean f4 [64]
-0.23261091 -0.29772258 -0.21194471 -0.0078089647 -0.33138207 -0.3208944 -0.45044607 -0.3105508
0.07183593 -0.22353517 -0.33653003 -0.18072766 -0.45245576 0.18838146 -0.16147225 -0.23671319
-0.4343098 -0.22679588 0.3521788 -0.221632 0.054650556 -0.31544584 -0.4315589 0.2989029
0.04516492 -0.1949883 -0.4510328 -0.20628303 -0.359747 -0.5756352 -0.33198708 -0.22272472
-0.120109774 -0.4191474 -0.13885869 -0.15290315 -0.11196264 -0.31038117 -0.47797275 -0.15236731
-0.26553515 -0.32860774 -0.22282024 -0.26040673 0.009480984 -0.23658317 -0.01420435 -0.4164638
-0.34588405 -0.21010277 -0.25573274 -0.54070866 0.013664147 -0.1651896 -0.29628527 -0.26651493
-0.079830185 -0.3162983 -0.20725495 -0.3037914 -0.15836163 0.043555975 -0.22286026 -0.2863501
00000000: 8e31 6ebe 186f 98be 0908 59be 58e2 ffbb
00000010: e9aa a9be 454c a4be dea0 e6be 8400 9fbe
00000020: b71e 933d 67e6 64be aa4d acbe ac10 39be
00000030: 48a8 e7be 12e7 403e fb58 25be f164 72be
00000040: db5d debe 2e3d 68be c850 b43e 80f3 62be
00000050: 43d9 5f3d 1e82 a1be 4af5 dcbe cd09 993e
00000060: dafe 383d 03ab 47be c5ed e6be dc3b 53be
00000070: c230 b8be d45c 13bf 36fa a9be f311 64be
00000080: 1dfc f5bd 7d9a d6be f930 0ebe a592 1cbe
00000090: ab4c e5bd 48ea 9ebe d8b8 f4be 2d06 1cbe
000000a0: 39f4 87be 463f a8be fd2a 64be 0854 85be
000000b0: 2156 1b3c dc42 72be 5db9 68bc be3a d5be
000000c0: b717 b1be 2e25 57be 67ef 82be e26b 0abf
000000d0: 96df 5f3c 7627 29be b4b2 97be a574 88be
000000e0: 027e a3bd daf1 a1be a43a 54be 8c8a 9bbe
000000f0: 8d29 22be c067 323d 7b35 64be 7b9c 92be

conv2.2.running_var f4 [64]
0.057000007 0.10837137 0.09921407 0.16045082 0.06674571 0.1520733 0.14423221 0.26791492
0.13245074 0.06597805 0.14882599 0.022919584 0.115637094 0.28448185 0.17965163 0.08107398
0.46769798 0.0934811 0.23074946 0.051680423 0.1363994 0.10768136 0.1966762 0.18943869
0.13984106 0.038231134 0.21778028 0.028786425 0.12961875 0.16412224 0.18319686 0.070903525
0.034641165 0.19840646 0.09231373 0.05797222 0.062523365 0.17596811 0.14051296 0.10580735
0.1139271 0.09460624 0.049111985 0.12433065 0.20665659 0.09543642 0.2766274 0.118999414
0.16551009 0.29818672 0.18191946 0.23998886 0.07310967 0.15046221 0.08630373 0.031777803
0.12262637 0.36932886 0.026844531 0.103591844 0.098000795 0.16215494 0.13625073 0.11005952
00000000: d778 693d cff1 dd3d bf30 cb3d 384d 243e
00000010: fab1 883d 1ab9 1b3e 9cb1 133e 252c 893e
00000020: 2ba1 073e 801f 873d d765 183e dac1 bb3c
00000030: 24d3 ec3d 9ba7 913e 99f6 373e 1d0a a63d
00000040: 1c76 ef3e 0573 bf3d 9649 6c3e daae 533d
00000050: 49ac 0b3e 0b88 dc3d 7c65 493e 37fc 413e
00000060: 7f32 0f3e 4098 1c3d cb01 5f3e 82d1 eb3c
00000070: c7ba 043e a90f 283e f597 3b3e de35 913d
00000080: e5e3 0d3d 102b 4b3e fb0e bd3d 4774 6d3d
00000090: 400c 803d fc30 343e a1e2 0f3e 86b1 d83d
000000a0: 9d52 e93d ebc0 c13d a629 493d 11a1 fe3d
000000b0: c99d 533e 2b74 c33d 1ba2 8d3e f7b5 f33d
000000c0: 7a7b 293e eeab 983e 1849 3a3e a4bf 753e
000000d0: 86ba 953d c412 1a3e 03c0 b03d 7129 023d
000000e0: 8923 fb3d ac18 bd3e 10e9 db3c f627 d43d
000000f0: a4b4 c83d f20b 263e 5085 0b3e e366 e13d

conv3.0.weight f4 [64, 64, 5]
0.008348725 0.016538084 0.016789744 0.010443843 0.0008789952 0.0006819915 0.0075202947 -0.014637404
0.0005708626 -0.0063262912 0.015666505 -0.0023205495 0.004327489 0.013214418 0.0074956575 -0.0015926111
0.0063347155 -0.009504485 -0.0011612392 0.00014377061 0.013281594 0.0011331331 -0.0049735447 0.0030167792
-0.0030358555 0.01690759 -0.008647986 0.0060226475 0.015698543 0.004324421 0.029081935 0.00086146663
-0.009010745 0.02229346 0.009873205 -0.00993406 0.0102814175 0.019749885 0.0007005533 -0.012578836
0.004194541 -0.0009285829 -0.0066803386 -0.010124095 0.001945337 -0.0016471493 -0.0018042848 -0.0070796865
0.0059215673 -0.0041975654 0.01938571 0.0009517927 0.001686656 0.019513076 0.012302544 0.009091688
0.0013652035 -0.005189401 0.004170652 0.00016665069 0.023221558 0.013672004 -0.0058272346 0.010077071
0.0073119663 -0.026566913 -0.0058969795 -0.009669376 -0.012706683 0.0058369385 0.005230591 0.005258763
-0.0074009118 0.017046046 -0.011127432 -0.00088402693 -0.0051442096 -0.0031743164 0.0034345256 0.0048358417
-0.0143469 -0.0008217431 0.01643269 0.007486723 -0.013237406 -0.00043063963 -0.0118255615 0.008466846
0.019656746 -0.011460631 -0.015215701 -0.0052883965 -0.0029632987 -0.024138486 -0.02205423 0.011962907
0.008896531 -0.0016560234 0.010712905 -0.00086492056 0.0064668455 -0.01229195 -0.0133425 0.0027512487
0.0037152993 0.01728462 0.0058669206 -0.01311617 -0.0010620456 0.0018005201 0.035134893 0.010609935
-0.011694318 0.0071990266 0.011099554 -0.020996343 -0.006590767 -0.010203503 -0.009011395 -0.010949933
0.0075896527 -0.013543321 -0.0011216174 -0.0023016033 0.0032460187 0.006951355 0.0012228332 -0.0037052403
0.006631074 0.010136604 0.014453594 -0.010248501 0.012143754 0.026726056 0.010507764 0.0057282094
0.0003350404 0.0007979351 0.00023358311 -0.0047527864 0.010316275 0.0072065005 0.015175709 0.012673574
-0.00916338 0.036243234 0.010144761 0.0051567345 0.0053397617 -0.0069206525 -0.0012125641 -0.00027861862
0.012855004 0.007697164 -8.505626e-06 0.004358971 0.0012838052 0.0053140754 0.007724416 0.0008860726
0.007360379 0.0064674797 0.010438005 0.007843379 0.0048121815 0.016939022 0.016644903 0.033405196
0.024444154 0.013407227 0.00013259429 0.004575757 0.0026372967 -0.00032737356 -0.0018482375 0.0097221285
0.015592409 0.0010726191 0.0021806145 -0.0019244849 0.00256143 0.010329424 0.0021551035 -0.0048565054
-0.004748315 -0.00977847 0.00084964203 0.01857144 0.010886924 -0.016202014 0.016213907 0.009486478
0.019186372 0.009820028 0.0008508471 0.011268542 -0.006678486 -0.017363215 -6.874129e-05 0.008329866
0.002868471 0.0006546584 0.005775964 0.013789051 -0.0102736475 0.022746103 0.0012472091 -0.0053304606
0.0051159835 -0.0028396614 0.007954596 0.00028951885 -0.011198377 0.0072702477 0.008252462 -0.0045557884
-0.001591498 0.0044865482 0.024778092 0.011400203 -0.010549905 -0.007915428 -0.016348083 -0.0047530835
0.0008552199 0.017973535 -0.007565979 0.009632865 0.0049178973 -0.008124295 0.0034765785 -0.012062208
-0.004085909 -0.006663828 -0.012713276 0.012611331 -0.0121711455 0.004270474 0.01574292 -0.0072926977
0.052306566 0.008282861 -0.006604853 0.0017437984 0.019485349 -0.023104774 -0.0052865758 0.01473937
-0.0024260604 -0.01924271 0.009549815 -0.007824812 0.0089329975 0.023974534 0.010401398 0.0023566168
00000000: 17c9 083c e07a 873c a58a 893c a71c 2b3c
00000010: 5f6c 663a adc7 323a ce6c f63b b9d1 6fbc
00000020: f1a5 153a c74c cfbb 0b57 803c 5c14 18bb
00000030: 9ccd 8d3b 4981 583c 229e f53b 29bf d0ba
00000040: 7293 cf3b b3b8 1bbc b934 98ba 21c1 1639
00000050: 0b9b 593c a385 943a 1ef9 a2bb 28b5 453b
00000060: 34f5 46bb c981 8a3c 48b0 0dbc a159 c53b
00000070: 3b9a 803c dfb3 8d3b 3d3d ee3c 0cd4 613a
00000080: cea1 13bc c6a0 b63c 39c3 213c 78c2 22bc
00000090: 6473 283c 83ca a13c 56a5 373a 7617 4ebc
000000a0: 5c72 893b 256c 73ba bee6 dabb 88df 25bc
000000b0: aefa fe3a 29e5 d7ba c07d ecba b7fc e7bb
000000c0: b509 c23b bb8b 89bb c8ce 9e3c ba81 793a
000000d0: c912 dd3a e3d9 9f3c 9c90 493c 4ef5 143c
000000e0: a1f0 b23a da0b aabb f7a9 883b f4be 2e39
000000f0: 233b be3c 8b00 603c 63f2 bebb 4d1a 253c
00000100: 3899 ef3b dba2 d9bc 733b c1bb 4d6c 1ebc
00000110: b12f 50bc ca43 bf3b 6165 ab3b b451 ac3b
00000120: 5983 f2bb 26a4 8b3c d54f 36bc 0bbe 67ba
00000130: c290 a8bb 3108 50bb c715 613b fb75 9e3b
00000140: 430f 6bbc 3f6a 57ba d99d 863c 2f53 f53b
00000150: b4e1 58bc 79c7 e1b9 00c0 41bc 87b8 0a3c
00000160: 2f07 a13c 5fc5 3bbc 474b 79bc 494a adbb
00000170: e733 42bb 13be c5bc 13ab b4bc 1200 443c
00000180: c1c2 113c ed0e d9ba 2e85 2f3c d6bb 62ba
00000190: d5e7 d33b 2d64 49bc 809a 5abc 4b4e 343b
000001a0: 617c 733b 7a98 8d3c 4c3f c03b 34e5 56bc
000001b0: 5634 8bba 6eff eb3a 9be9 0f3d 4bd5 2d3c
000001c0: 8699 3fbc d0e5 eb3b e7da 353c 8600 acbc
000001d0: 5cf7 d7bb 982c 27bc 88a4 13bc 5967 33bc
000001e0: 9fb2 f83b cee4 5dbc 3c03 93ba 7fd6 16bb
000001f0: 28bb 543b 31c8 e33b 7947 a03a 9ed3 72bb
00000200: 7b49 d93b 0014 263c c4ce 6c3c 54e9 27bc
00000210: 99f6 463c 9af0 da3c c228 2c3c b4b3 bb3b
00000220: 5ca8 af39 852c 513a fded 7439 43bd 9bbb
00000230: 9805 293c 8224 ec3b 89a3 783c d2a4 4f3c
00000240: 0022 16bc c973 143d 3636 263c d3f9 a83b
00000250: 2bf9 ae3b a4c6 e2bb e6ee 9eba 8f13 92b9
00000260: cb9d 523c 7e38 fc3b 63b3 0eb7 b3d5 8e3b
00000270: 5b45 a83a b221 ae3b 191d fd3b 5347 683a
00000280: 562f f13b 27ed d33b 2b04 2b3c 8481 003c
00000290: 81af 9d3b b4c3 8a3c e45a 883c e3d3 083d
000002a0: 1b3f c83c fca9 5b3c 0209 0b39 3bf0 953b
000002b0: 7fd6 2c3b 56a3 abb9 8f40 f2ba 9049 1f3c
000002c0: 4e77 7f3c 2097 8c3a a4e8 0e3b ff3e fcba
000002d0: aadd 273b bf3c 293c a33c 0d3b 5223 9fbb
000002e0: c197 9bbb e035 20bc 83ba 5e3a 2223 983c
000002f0: 125f 323c 16ba 84bc 07d3 843c 2c6d 1b3c
00000300: bd2c 9d3c 2fe4 203c 620b 5f3a b19f 383c
00000310: 33d7 dabb 4d3d 8ebc 3329 90b8 fe79 083c
00000320: f5fc 3b3b 629d 2b3a 4c44 bd3b 79eb 613c
00000330: cd52 28bc 0956 ba3c 6579 a33a 25ab aebb
00000340: fba3 a73b 9d19 3abb fe53 023c 90ca 9739
00000350: 6679 37bc 423b ee3b 5635 073c b948 95bb
00000360: d099 d0ba e503 933b 6dfb ca3c ebc7 3a3c
00000370: 82d9 2cbc b6af 01bc 6aec 85bc c1bf 9bbb
00000380: d630 603a 3c3d 933c 08ec f7bb 2ad3 1d3c
00000390: 5026 a13b c31b 05bc 4fd7 633b 91a0 45bc
000003a0: 17e3 85bb 3e5c dabb 584b 50bc c29f 4e3c
000003b0: 7c69 47bc 55ef 8b3b 4cf7 803c 95f7 eebb
000003c0: 693f 563d d6b4 073c 866d d8bb 2a90 e43a
000003d0: bd9f 9f3c 3946 bdbc 033b adbb 667d 713c
000003e0: 8afe 1ebb e3a2 9dbc d476 1c3c a433 00bc
000003f0: b55b 123c 3e66 c43c a06a 2a3c 7871 1a3b

conv3.0.bias f4 [64]
-7.302555e-08 3.731795e-06 -4.8151014e-06 5.6241735e-08 -1.2510117e-06 1.7948773e-06 8.385787e-07 2.8320153e-06
-3.8169287e-06 -4.980365e-06 -9.429374e-06 4.3210431e-07 1.2418027e-06 -2.5073172e-07 -3.5770067e-06 9.9951535e-08
-3.699433e-07 -5.0960343e-06 -1.2045834e-06 3.5187773e-07 3.0434787e-06 -6.938554e-06 1.0113414e-06 -1.111752e-06
2.6969016e-07 -9.939333e-06 -1.8694295e-06 7.4385696e-07 7.808668e-07 -1.0543333e-06 -2.004765e-08 -4.9309792e-06
-1.6741171e-06 -1.6074727e-06 2.9316496e-07 -2.3229754e-06 8.0762595e-07 -8.1052684e-07 -4.4748467e-06 -1.7072524e-06
-8.519191e-07 -2.0328796e-06 -2.36816e-06 -3.1242832e-06 -1.1521868e-05 -3.0964075e-05 -8.465396e-07 5.593832e-07
8.188992e-06 -1.2586031e-06 -3.0266293e-07 -3.0753538e-06 1.3980213e-06 1.4343499e-06 1.1942728e-06 1.0665834e-05
-2.1209065e-07 -1.7753984e-05 3.1414559e-06 2.0389305e-06 2.6416546e-06 5.6665846e-07 3.5089934e-07 8.576139e-07
00000000: 38d2 9cb3 c06f 7a36 6891 a1b6 718e 7133
00000010: 6fe8 a7b5 84e7 f035 b11a 6135 a70d 3e36
00000020: 2b13 80b6 021d a7b6 da32 1eb7 f7fb e734
00000030: 04ac a635 4e9c 86b4 820c 70b6 f0a4 d633
00000040: 9f9c c6b4 9afe aab6 2cad a1b5 b5e9 bc34
00000050: 913e 4c36 bad1 e8b6 6dbd 8735 8237 95b5
00000060: efc9 9034 1cc1 26b7 1ce9 fab5 76ad 4735
00000070: c29c 5135 9e82 8db5 4035 acb2 ca74 a5b6
00000080: 3ab2 e0b5 57c0 d7b5 4964 9d34 6ae4 1bb6
00000090: a2cb 5835 fb92 59b5 a426 96b6 bf24 e5b5
000000a0: 6faf 64b5 9b6c 08b6 aeec 1eb6 c7aa 51b6
000000b0: 0c4e 41b7 6cdf 01b8 c23d 63b5 8528 1635
000000c0: 7463 0937 46ed a8b5 ad7d a2b4 2d62 4eb6
000000d0: a5a3 bb35 e383 c035 e74a a035 69f1 3237
000000e0: 09bb 63b4 64ee 94b7 cdd1 5236 8fd4 0836
000000f0: 4847 3136 791c 1835 3d63 bc34 c736 6635

conv3.1.weight f4 [64]
0.14990775 0.5658871 0.64376837 0.65822005 0.8747364 0.67751795 0.639369 0.5163806
0.61768603 0.74318486 0.5229455 0.4780422 0.23192324 0.5109119 0.7071512 0.44028136
0.46431693 0.59927857 0.28218833 0.410637 0.50800014 0.52399826 0.2855858 0.7223043
0.4930485 0.6821686 0.5283625 0.53668815 0.4419739 0.5755512 0.20896482 0.40576848
0.56027573 0.36821955 0.61599064 0.72779524 0.7340411 0.39772302 0.5915455 0.47855747
0.6044391 0.48559162 0.68642133 0.49589434 0.8561346 0.68671066 0.46190003 0.5775078
0.7424639 0.5130655 0.46800196 0.34399375 0.37069836 0.4362482 0.25750005 0.6688106
0.5214257 0.6946006 0.7413424 0.4549323 0.5936862 0.47078472 0.23771483 0.52659416
00000000: 6b81 193e fadd 103f 01ce 243f 1c81 283f
00000010: baee 5f3f d171 2d3f b0ad 233f 8531 043f
00000020: ac20 1e3f 5d41 3e3f c2df 053f f2c1 f43e
00000030: 497d 6d3e 1fcb 023f dc07 353f 8f6c e13e
00000040: f3ba ed3e 526a 193f fd7a 903e 033f d23e
00000050: 4c0c 023f c024 063f 4d38 923e efe8 383f
00000060: da70 fc3e 9aa2 2e3f c442 073f 6564 093f
00000070: 674a e23e 5357 133f e0fa 553e e3c0 cf3e
00000080: 3b6e 0f3f 4687 bc3e 90b1 1d3f ca50 3a3f
00000090: 1eea 3b3f 5aa2 cb3e 876f 173f 7c05 f53e
000000a0: 85bc 1a3f 779f f83e 4fb9 2f3f dde5 fd3e
000000b0: a32b 5b3f 45cc 2f3f 297e ec3e 8dd7 133f
000000c0: 1d12 3e3f 4358 033f f49d ef3e f31f b03e
000000d0: 2dcc bd3e ed5b df3e 0cd7 833e 2c37 2b3f
000000e0: 287c 053f 58d1 313f 9ec8 3d3f e3ec e83e
000000f0: d2fb 173f b20a f13e 846b 733e e0ce 063f

conv3.1.bias f4 [64]
-0.041075375 -0.05286953 0.028698716 0.014177297 -0.09606905 0.01657303 0.008982163 0.0749716
-0.042902514 -0.03870529 -0.027692897 -0.011518439 0.010501898 -0.03066843 0.03751254 -0.0063639614
-0.021897726 0.017847579 0.002320616 0.016172688 -0.005572728 -0.06834058 0.016651157 -0.02635748
-0.014133901 0.048831772 0.038524114 0.014403885 0.041336656 -0.067570046 -0.0050479793 -0.026617292
-0.060442258 -0.016229888 0.004776911 0.10652678 0.10308326 0.075814985 -0.08817422 0.049768448
0.07397561 -0.053898077 -0.0006734626 0.004236296 0.17187533 0.0016513863 0.03257458 -0.033482872
-0.03164954 -0.006098781 -0.035763215 -0.06061674 -0.049653642 -0.017809097 0.030479152 -0.08196578
-0.09251766 0.006846805 0.05657959 0.008858218 0.012632551 -0.024413962 -0.03660094 0.07485885
00000000: a73e 28bd b88d 58bd 9219 eb3c e547 683c
00000010: dabf c4bd 2ac4 873c ec29 133c b68a 993d
00000020: 8cba 2fbd 7089 1ebd 37dc e2bc d6b7 3cbc
00000030: 2710 2c3c 5c3c fbbc c0a6 193d c788 d0bb
00000040: dc62 b3bc 1635 923c 7a15 183b 967c 843c
00000050: 6e9b b6bb 25f6 8bbd 0268 883c a4eb d7bc
00000060: e191 67bc d303 483d 76cb 1d3d 46fe 6b3c
00000070: a050 293d 2a62 8abd 8569 a5bb 820c dabc
00000080: 4d92 77bd 8bf4 84bc a287 9c3b b62a da3d
00000090: 511d d33d e344 9b3d af94 b4bd 00da 4b3d
000000a0: 8680 973d 3bc4 5cbd 4f8b 30ba a0d0 8a3b
000000b0: 1600 303e 5473 d83a ec6c 053d 5625 09bd
000000c0: f3a2 01bd 48d8 c7bb 737c 12bd 4249 78bd
000000d0: 9e61 4bbd 62e4 91bc 6aaf f93c addd a7bd
000000e0: e679 bdbd 2a5b e03b 00c0 673d 0f22 113c
000000f0: c2f8 4e3c caff c7bc deea 15bd 994f 993d

conv3.1.running_mean f4 [64]
0.15587267 -0.13706487 -0.14962997 -0.09946144 0.42697176 0.20116745 -0.027552124 -0.318781
0.11743034 0.07226084 -0.2660511 0.17078842 -0.11838948 0.14692356 -0.059653822 0.28536242
0.07250118 -0.4214276 -0.18816964 -0.04333138 0.32767278 0.5172397 -0.15932575 0.17127998
-0.17876367 -0.5754821 0.19536968 -0.22255735 0.13790527 -0.040409133 0.007834341 -0.42384827
-0.15443043 -0.19896488 0.019849073 -0.18804307 -0.3506979 -0.043824237 0.39414886 -0.082476586
-0.019584022 -0.3220934 -0.1252424 -0.37887958 -0.6279927 0.021066926 -0.20328043 -0.06401467
0.44359517 0.4685849 -0.1007624 -0.032758098 -0.12293578 0.0102504045 -0.27300152 -0.21263587
0.21363659 0.020270918 0.1094842 -0.013659108 -0.28939435 -0.062331256 0.11611827 -0.009566346
00000000: 169d 1f3e bc5a 0cbe 9938 19be 71b2 cbbd
00000010: 0b9c da3e d7fe 4d3e feb4 e1bc 4337 a3be
00000020: 517f f03d 7efd 933d da37 88be 29e3 2e3e
00000030: 2f76 f2bd 2173 163e 9157 74bd 061b 923e
00000040: 807b 943d 5cc5 d7be 8baf 40be 3f7c 31bd
00000050: bac4 a73e d269 043f 4a26 23be 0564 2f3e
00000060: d30d 37be cb52 13bf fd0e 483e 13e6 63be
00000070: 0a37 0d3e 0c84 25bd 9c5b 003c a402 d9be
00000080: 0323 1ebe 73bd 4bbe 869a a23c 5d8e 40be
00000090: ad8e b3be 0b81 33bd e1cd c93e 7ce9 a8bd
000000a0: ac6e a0bc 6de9 a4be 8b3f 00be 81fc c1be
000000b0: 21c4 20bf 8c94 ac3c bf28 50be 201a 83bd
000000c0: e81e e33e 5cea ef3e 845c cebd 5b2d 06bd
000000d0: c1c5 fbbd 50f1 273c dbc6 8bbe 38bd 59be
000000e0: 8dc3 5a3e 320f a63c 4139 e03d 74ca 5fbc
000000f0: 7f2b 94be 0f4f 7fbd 6acf ed3d 2abc 1cbc
