nets/SCNN.pth (torch, 393097 bytes, 21 tensors)

conv1.0.weight f4 [128, 1, 7]
00000000: bf5e 393e 7b07 2ebd b35e 1f3d 9ab3 27bd
00000010: 8b01 a63d 1697 cd3d e318 b23d 2414 943d
00000020: e0d8 4fbd 3abd 603e 3d4d 283e b6bf 81be
00000030: 39e3 02be 19cd f4bc 6685 9b3d 1930 b0be
00000040: b10c 54be 81bf a93e 3c53 063d 88b7 dcbd
00000050: 1f6b 6d3e 736f 893d 7001 823d 038e 183e
00000060: 8858 2c3e 94fe 2abe afb2 b23d 1d74 6abe
00000070: 9cd7 2bbe 557f 37be 7744 133e af65 763d
00000080: 9bd5 76be f54a 733d 5a9b 88bd e50c 0ebe
00000090: e609 62bd 06ec a8bc 48d6 603d 02d3 66bd
000000a0: 0481 0e3e 42e9 4cbe a310 4f3e 15a2 2e3d
000000b0: d127 b8bb 4b51 c33d 63fd 97bd 791a 4abe
000000c0: b406 003e fde1 14bc ecd5 dabd d716 d03d
000000d0: b3b6 34be 6637 f73d cc68 8bbe 6fd8 803e
000000e0: 5ddf 9fbd f43b 943e 85b6 133e bd0c f3bd
000000f0: c228 b7be 2722 8f3e 22c8 dbbd 9f29 2c3e
00000100: e75f f2bc 048b 85bd 59b3 683d f92f 5b3d
00000110: e616 8e3d c477 b93c dda8 a93d 815c 3abd
00000120: af95 863d 8753 893d 4e84 a1bd cab6 cd3d
00000130: d4c8 0a3e 3cc6 1f3e 45f7 1bbe c776 523e
00000140: d1fe bdbd abd1 3dbe 98b6 cabd ca10 1cbe
00000150: 55dd a4be ef54 35bd 4916 af3e 97ae 07be
00000160: bb8f b3bd 4fff 033e 0817 433e e294 32be
00000170: 2dac 033e 88ea 183e 4ffc 8a3e 2236 98be
00000180: 9082 8339 ef3a f1bd b541 8fbd f46c 32bc
00000190: 1f74 13be e04d d9bd ea60 09be 59de 413e
000001a0: a564 68bd 4a05 e13d ed11 0e3e b4a2 89be
000001b0: 1fbe 63be ebfa 9e3d 1b68 35be 1ee5 923e
000001c0: dcaa 16be 9a4b 7e3e 33c2 ec3d 8fc0 c9bd
000001d0: 7ce6 b7bd 77cb 303e 576b 1ebe 7798 843e
000001e0: 11b7 73be c877 6f3e cd51 973d 2d3e 76be
000001f0: 222a 853d 8b42 1b3e b507 fcbd a215 63bd
00000200: 93cd 733c 43b4 c9bd bd7c 27bd 3fbc 8dbd
00000210: 2633 09bd eba2 d9bd 9de0 bc3d cf29 913d
00000220: f693 e33c b30f 393e be34 50be 6d9b 053e
00000230: b013 97be d176 643d 9b4e 11bd 5096 aabd
00000240: 1c0d 81bb 127d 973e 66f5 58bd 6f57 60bd
00000250: 70f6 22be 749f 153d 404b 4c3e 000f 2f3e
00000260: 1fd1 fa3d d92f 6ebe 3859 fe3b 3572 97be
00000270: 8320 3c3e 1cda 6f3d d033 91bd 0f10 043e
00000280: a1d6 e43d 0a90 67be 9d51 63bd 6214 8f3d
00000290: c5af 3d3d 2fc5 70be 664a 8f3e 6f3c 50bc
000002a0: fd8a d83c 5719 023d 8c3a 10be 4284 ffbd
000002b0: 423d 093e e7df 253e 5147 513e c252 06be
000002c0: 85fa 0e3e 2ae7 a03d e796 eb3a 1b3b 00be
000002d0: e159 abbd 7980 3fbe c369 ceba b182 b23d
000002e0: 87c3 20be c8c0 68bd a4fe a0bc 7c2f e6bd
000002f0: 41be f8bc a986 d73d fd69 35bd b6ff 43be
00000300: 796b 81bd 9ab2 7fbe c83f 3e3e f7f1 643e
00000310: 9bab 83be 313c 24be b7a3 513e c012 423e
00000320: 4f0a 8e3e 972e 20be abef 14bd ead2 093d
00000330: 8c64 36bc 5629 1bbe fec5 85be 76cd 7f3e
00000340: 06a9 12bd 5f45 953e dc63 94bd 853e 4dbc
00000350: 8a43 cebc cfca 15be 7836 773d 5a1b 99bd
00000360: 08a5 7abd 2629 9b3d 6208 8e3d a7ac 653d
00000370: 6183 5c3d 46c1 053e 3017 52bc cdb6 17be
00000380: f088 4fbe 6c99 5cbe 0c4d 8c3e 1686 783e
00000390: df18 01be fd6e 6e3c 34ce 253e c9f8 aabe
000003a0: 66fb 173d 14f1 76be 6051 053e d11b 3a3e
000003b0: f38c 243e 1c34 093e 50ad d4bd 7ec8 64be
000003c0: b1b2 c2bc 443b 223e 4be7 34be 632e 513e
000003d0: 7936 5b3e 8be6 3dbe 35c3 733e 0590 81be
000003e0: a788 4e3d 8f0b 483e e164 a8be 0bed 9b3e
000003f0: 9616 f33d e41f 43be 4a4b 8fbd 61dd c03d
0.18102549 -0.042487603 0.03890867 -0.040942766 0.08105763 0.10038583 0.08696153 0.07230404
-0.050743937 0.21947184 0.16435714 -0.25341576 -0.12781991 -0.029882954 0.07593803 -0.34411696
-0.20707966 0.33153918 0.032794222 -0.10777193 0.23185395 0.067107104 0.063479304 0.14897923
0.16830647 -0.16698676 0.087254874 -0.22895856 -0.16781467 -0.17919667 0.14381586 0.060155567
-0.24104922 0.059397656 -0.06670256 -0.13872106 -0.05518522 -0.020620357 0.054891855 -0.056353576
0.13916403 -0.20010856 0.2022119 0.042635042 -0.005619981 0.0953699 -0.074213766 -0.19736661
0.12502557 -0.009087083 -0.106853336 0.10160606 -0.17647819 0.12071113 -0.2722839 0.25165126
-0.07806275 0.2895199 0.14425094 -0.11867664 -0.35773283 0.27955744 -0.10731532 0.16812752
-0.029586745 -0.06520656 0.056811664 0.053512547 0.06937961 0.022640117 0.08284161 -0.045498375
0.06571519 0.06705385 -0.07886563 0.1004463 0.13553172 0.15602964 -0.15231045 0.20553122
-0.09277118 -0.18537013 -0.09898108 -0.1524078 -0.32200113 -0.044270452 0.3419669 -0.13250194
-0.08767649 0.12890361 0.19051754 -0.17439607 0.12858649 0.14933217 0.2714562 -0.297288
0.00025083544 -0.11778819 -0.069949545 -0.010890234 -0.14399765 -0.106105566 -0.13415876 0.18932475
-0.056736607 0.10987337 0.13874026 -0.26881945 -0.22240494 0.077627026 -0.17715494 0.28690428
-0.14713615 0.24833527 0.11560478 -0.09851181 -0.08979508 0.17265116 -0.15470634 0.2589757
-0.23800303 0.23385537 0.07388649 -0.24047156 0.06502177 0.15162103 -0.123061575 -0.055440553
0.014880556 -0.09848835 -0.040890444 -0.06920671 -0.033496045 -0.10626777 0.09222529 0.070880525
0.027780514 0.18072395 -0.2033262 0.13047571 -0.29507208 0.055777375 -0.035475355 -0.08329451
-0.0039383303 0.2958761 -0.052968405 -0.054770883 -0.15914321 0.03652902 0.1995058 0.17095566
0.12246918 -0.2326044 0.0077621005 -0.2957932 0.18371777 0.058557615 -0.070899606 0.12896751
0.1117375 -0.2261354 -0.055497754 0.069863096 0.046310205 -0.2351272 0.2798645 -0.012709721
0.026433462 0.031762447 -0.14084834 -0.12476398 0.13402274 0.16198693 0.20437361 -0.13117507
0.13962753 0.07856591 0.001797405 -0.12522547 -0.083667524 -0.18701352 -0.0015748072 0.08716334
-0.15699588 -0.056824476 -0.019652672 -0.11239526 -0.030364158 0.10523731 -0.04429053 -0.19140515
-0.06319327 -0.24970475 0.18579018 0.22357927 -0.25716862 -0.16038586 0.20472609 0.18952465
0.2774224 -0.15642773 -0.036361378 0.03364841 -0.011132371 -0.15152487 -0.2612762 0.24980721
-0.035805725 0.29154488 -0.07245609 -0.012527113 -0.02517869 -0.14628147 0.06035468 -0.0747592
-0.061192542 0.07576208 0.06935193 0.056072857 0.05383623 0.13062009 -0.012822911 -0.14815827
-0.20267081 -0.21542901 0.27402532 0.242699 -0.12607144 0.014552829 0.16191941 -0.33392933
0.037104987 -0.24115402 0.13019323 0.18174674 0.16069393 0.13398784 -0.10384619 -0.22342107
-0.023766847 0.1584292 -0.17666356 0.20427851 0.21407498 -0.18544976 0.23804934 -0.2530519
0.05042329 0.19535659 -0.32889464 0.30454287 0.11869542 -0.19055134 -0.06996782 0.09417225

conv1.0.bias f4 [128]
00000000: 0f01 0db4 ed3c 6835 d8ff f534 a91d 5ab9
00000010: bc2a 343c a5a2 b43b 22f1 8538 dcd7 aeba
00000020: 57b2 51b6 b508 aab4 10f5 6dbc 294f 2eb3
00000030: c98b 06ba 5824 2c35 cd0d 083a 5aff 3233
00000040: 655e eeb9 3c22 4ab7 7e0f 4134 c26e 11ba
00000050: d7bd d833 f094 283a a894 c3ba 0fd5 0d33
00000060: 3b64 8537 ba22 87b5 e02b 253b 2493 dbb4
00000070: 43c8 3c38 c900 2733 c5c3 6c3a 560c 983b
00000080: 631f b1b3 3849 f6bb c734 2b38 4d52 3a34
00000090: e465 bb3c 4152 a73c 5047 9a3b 7fee 1abc
000000a0: d1fa c339 ff6d 6834 1659 963a c868 813c
000000b0: b25c 4734 d599 a0b5 2813 69b3 c0a3 24b4
000000c0: d2f2 29bb 4e2b f537 5f0d e138 c486 9ebc
000000d0: f923 21b6 3850 d43b 5113 0db4 91db 343c
000000e0: e547 a43c 4d3e bfbc 6510 2bb4 fd6b 6034
000000f0: cd34 01bb ce8c 8338 a55b 59b2 a91f 2fb5
00000100: 6acc 34b4 49fe 5bbb 6b9b 9cb4 fc04 4fbb
00000110: c2dd 70bc 7bb7 96b3 177c 54b4 e218 c0bb
00000120: 5804 483b 50fa 0139 ffef 3b3a 59c8 11b3
00000130: 75bc cab3 91e6 c73c d6eb b4bc 7208 10b5
00000140: 2719 0f3c 5b70 56b3 293c d835 a0ee c0bb
00000150: 72c7 1539 55e1 42ba 1a32 b2b9 043e 93bb
00000160: 9760 0cb4 72f1 123b 2881 d2b1 f13e b534
00000170: 25eb dd39 2261 643c 1ff0 e6b4 9207 c2b3
00000180: 559f 593a 9eb2 8ebc 4c96 33b4 8e63 353a
00000190: af03 a4b3 6ddb 473b f1fd 2cb4 f2fc 0139
000001a0: 26a0 953c 0211 03b4 5b2f 263b f562 5a35
000001b0: d9ad 13bb 62c4 d6b2 697a e4b5 efec a8bb
000001c0: a561 5db3 b8d2 a4bb 9a82 a93a c5a0 aeb4
000001d0: 8529 9833 1e76 dfb6 317b 34b3 20f7 863c
000001e0: c084 3a3c 623b 15b4 5356 2b34 9fd9 4cbc
000001f0: 9ab8 ad35 7aab 1ab5 ffb6 0b35 245f 3cb3
-1.3132033e-07 8.6515394e-07 4.5820957e-07 -0.0002080115 0.010996517 0.005512553 6.386849e-05 -0.0013339478
-3.1247234e-06 -3.1671303e-07 -0.0145237595 -4.0584528e-08 -0.0005132524 6.412788e-07 0.0005190045 4.1676095e-08
-0.00045465227 -1.2048109e-05 1.7980162e-07 -0.0005547815 1.00928155e-07 0.0006430885 -0.0014921622 3.3022896e-08
1.5901509e-05 -1.006839e-06 0.0025203153 -4.0898988e-07 4.50092e-05 3.888343e-08 0.00090318575 0.0046401424
-8.247914e-08 -0.0075160526 4.081873e-05 1.7352541e-07 0.022875734 0.020424964 0.004708208 -0.009456276
0.0003738017 2.16467e-07 0.0011470641 0.015797034 1.8567042e-07 -1.19657e-06 -5.4266962e-08 -1.5333262e-07
-0.0025932086 2.9226441e-05 0.000107313266 -0.01935137 -2.4011808e-06 0.0064792894 -1.3138676e-07 0.011038677
0.020053813 -0.023345137 -1.593158e-07 2.0900912e-07 -0.001971531 6.272794e-05 -1.26519e-08 -6.523865e-07
-1.6838172e-07 -0.0033568314 -2.9170346e-07 -0.0031588664 -0.014701309 -7.018294e-08 -1.9789182e-07 -0.0058623413
0.0030520167 0.00012395647 0.0007169246 -3.394266e-08 -9.440638e-08 0.024401935 -0.022085112 -5.365647e-07
0.008734024 -4.9927944e-08 1.6110763e-06 -0.0058878213 0.00014284046 -0.000743409 -0.00033988134 -0.004493477
-1.3073655e-07 0.0022421745 -6.1264878e-09 3.3759673e-07 0.000423276 0.013939174 -4.301555e-07 -9.035206e-08
0.00083016354 -0.017419156 -1.6725352e-07 0.0006919437 -7.637515e-08 0.0030495778 -1.6111132e-07 0.00012396628
0.018264841 -1.2206513e-07 0.0025357816 8.135533e-07 -0.0022534041 -2.5002183e-08 -1.702295e-06 -0.005155198
-5.154438e-08 -0.0050300024 0.0012932599 -3.2527e-07 7.085604e-08 -6.6596685e-06 -4.2021558e-08 0.01647526
0.011384189 -1.389831e-07 1.595702e-07 -0.012503057 1.294323e-06 -5.7619e-07 5.204783e-07 -4.385869e-08

conv1.1.weight f4 [128]
00000000: 3705 3b3f 726a 2c3f d8ae 4c3f d779 253f
00000010: bb63 3b3f 3e55 323f 4a45 2c3f 3914 373f
00000020: bb51 2e3f 0842 343f 0250 2b3f e089 303f
00000030: 8689 5f3f 5087 433f ddc0 2c3f dd14 313f
00000040: 84c9 2c3f a2a6 2b3f baae 2c3f 5ee6 2a3f
00000050: 64d8 373f 29b1 2a3f 93a7 1f3f 5cdf 313f
00000060: 7eb2 323f 1c03 363f af89 233f 4a23 333f
00000070: 954a 403f 0a31 323f bdc4 253f f26a 2e3f
00000080: 7d0e 493f 266e 393f d466 343f 6b5b 423f
00000090: 7975 2c3f 7aba 243f feba 3d3f 641f 2e3f
000000a0: a9e6 3b3f 7d85 333f 9c60 2e3f 8deb 2f3f
000000b0: 026f 2f3f 1a87 593f ca00 333f c5cd 343f
000000c0: 3430 363f d8f3 413f aac2 293f 1976 2f3f
000000d0: 65d0 3c3f 82fa 3d3f c822 2c3f 4232 353f
000000e0: f47f 2e3f 780c 473f d0ca 293f 2203 2e3f
000000f0: 6265 4f3f 8d37 443f 3c5a 263f 5bcf 2e3f
00000100: 02c8 293f c207 2c3f beb0 2c3f d0f7 353f
00000110: 7add 253f b574 233f 5520 363f 7881 423f
00000120: 3173 303f e31a 2e3f b3ed 2f3f 0914 2f3f
00000130: f45f 423f 6873 2f3f 2b65 2f3f fdd5 313f
00000140: cc04 483f faf6 273f e66e 3e3f c8e4 2c3f
00000150: 61ce 3a3f c359 383f d090 283f 2511 423f
00000160: bf53 403f e270 4b3f 09c0 303f 5416 2c3f
00000170: 0857 363f 1a2e 303f 8008 483f 8113 353f
00000180: 6b0a 383f e385 433f 28b9 333f 58ab 273f
00000190: 9c95 343f 4f02 423f 1bb8 363f c16a 493f
000001a0: 8cc3 263f 659b 313f d983 303f 0e67 353f
000001b0: eab9 443f 99cc 2e3f 49d8 553f e545 2e3f
000001c0: 5ba1 523f a417 253f 2dfe 333f ad67 353f
000001d0: ad02 2d3f e49e 343f efd4 293f 1097 343f
000001e0: 20be 2c3f e86d 353f be26 413f a2bc 303f
000001f0: db23 373f c839 2d3f a978 303f 96f7 293f
0.7305483 0.6734992 0.7995429 0.6463904 0.7319905 0.6966132 0.67293227 0.7151523
0.6809346 0.70413256 0.6691896 0.6896038 0.8731922 0.76378345 0.67481786 0.6917246
0.6749499 0.67051136 0.6745411 0.6675776 0.7181456 0.66676575 0.6236507 0.69481444
0.6980361 0.71098495 0.63881963 0.6997572 0.75113803 0.6960608 0.64753324 0.68131936
0.7853773 0.724337 0.70469403 0.7592074 0.6736675 0.6434704 0.7411345 0.6801665
0.73398834 0.7012556 0.68116164 0.68718797 0.6852876 0.84971774 0.6992308 0.7062648
0.711673 0.757627 0.6631266 0.6853958 0.73755485 0.7421037 0.6724057 0.7077981
0.6816399 0.777534 0.6632509 0.6797353 0.8101407 0.76647264 0.64981437 0.6828515
0.6632081 0.6719934 0.6745719 0.71081257 0.6479107 0.63849956 0.71143085 0.75978804
0.6892577 0.68009776 0.68722075 0.68389946 0.7592766 0.6853547 0.68513745 0.69467145
0.7813232 0.6561123 0.7438797 0.6753659 0.7297116 0.72011966 0.65845966 0.7580741
0.75127786 0.7946912 0.6904302 0.6722157 0.7122655 0.68820345 0.7813797 0.70732886
0.71890897 0.7637617 0.702044 0.65495825 0.70540786 0.7578477 0.7137467 0.7867852
0.6514213 0.6937774 0.68951184 0.70860374 0.7684618 0.6828094 0.8353315 0.680754
0.8227746 0.644892 0.70309716 0.7086132 0.6758221 0.7055495 0.66340536 0.70543003
0.6747761 0.7087083 0.7544974 0.6903783 0.71539086 0.6766629 0.6893411 0.6639341

conv1.1.bias f4 [128]
00000000: 1ebd 7fbc e4b2 1a3c 69a5 063d 3d79 fa3b
00000010: 4cb0 123a 9ac6 1dbc 0b53 99bc 2c2b f6bc
00000020: 13d9 82bc 6426 13bd 2edf e5bc 1d52 0eba
00000030: 61e1 563d 8672 303d 67c7 6fbd 99c0 71bd
00000040: b5ca eeba 20a9 2ebd f60d 88bd 4e59 c3bc
00000050: c713 3cbd 95c1 13bd 5515 67bd d0cb a2bc
00000060: bb0e a0bc 6167 013b 531a 5dbd b669 513d
00000070: fa40 ba3c cfc6 02bd f00c 5abd ae52 85bb
00000080: 674a 953b 2a4e 033d 5067 7b3c f05e c03b
00000090: ec63 16bd deb4 193a 4744 62bb ad6d a0bc
000000a0: 2d50 d73b 9b04 18bd c810 aabc 286a 50bd
000000b0: 6b53 92bd 8b38 863d 0e9d 09bd 3ae5 2e3c
000000c0: c0f2 22bd 4c0b a2bb 91cc 8bbc f202 08bd
000000d0: 7035 33bd 4caa a53d 2e0f 2fbd ae8a ad3b
000000e0: 9138 89bd c508 f43d 581d 0fbd 0d1b 0fbc
000000f0: b6d2 0abc 64cb 063b 82c7 35bd 3c61 f73c
00000100: d2eb 02bd 9df4 6fbd 5ca0 09bc 0b0b ccbc
00000110: 6c00 f53b 7b0e f4bb de33 f2bc 1abe 363d
00000120: 2ced acbc b097 83bd b77a cebb 04bd f5bc
00000130: d754 e9bc 4b33 e3bc d816 c33a 564c b2bc
00000140: 82f3 1d3d 4d87 d4bc 1e71 0fbd 3864 e9bc
00000150: 7ac1 f73c b496 8dbc 6b84 29bd 25c1 e93d
00000160: 8954 ff3a 93eb c63d e418 afbb d18d dbbc
00000170: 07b7 d6bc 3cc4 2e3c e196 84bc 05e4 e8bc
00000180: b4d9 3bbd a77b 3f3d 0e92 243d 3af7 f23c
00000190: 4ca9 503d e20b 883c 7123 38bd 107d 5a3d
000001a0: d259 68bd 3ffe 34bd f53e 9fbc d5f2 b1bc
000001b0: 6fd0 ff3c 8489 e03c 3e02 963d d2b8 debc
000001c0: 4606 7a3d d213 46bd c4b5 2ebd 4697 0e3c
000001d0: 8a6a 1bba 7ad9 abbc 11b1 db3c 6902 afbc
000001e0: e3c8 3bbd 5ec1 1dbd 8725 d23d f3df 47bd
000001f0: 1a22 2bbd 2a04 0abd 573b c7bc 7c21 bbba
-0.015609054 0.009442065 0.03287259 0.0076438473 0.0005595728 -0.00962987 -0.018716356 -0.030049883
-0.01597265 -0.035925284 -0.028060522 -0.0005429106 0.05246103 0.043077968 -0.058539774 -0.059021566
-0.001821837 -0.04264176 -0.06643288 -0.023846295 -0.0459173 -0.036073286 -0.05641683 -0.019872576
-0.019538274 0.0019745457 -0.053980183 0.051126204 0.022736061 -0.03192788 -0.053234994 -0.004068694
0.0045559886 0.032056965 0.015344456 0.0058706924 -0.036716387 0.0005863438 -0.003452556 -0.019583547
0.006570837 -0.037113767 -0.020759955 -0.05088249 -0.07144817 0.065537535 -0.033597045 0.010674769
-0.039782286 -0.0049451943 -0.017065318 -0.033205934 -0.043752134 0.08089122 -0.042739086 0.005296073
-0.06700242 0.11915735 -0.034940094 -0.008734477 -0.008473089 0.0020568008 -0.04437972 0.030197732
-0.031963177 -0.05858289 -0.008400049 -0.02490761 0.007476857 -0.0074480153 -0.029565748 0.04461489
-0.021109186 -0.064254165 -0.00630125 -0.029997356 -0.028482838 -0.02773442 0.0014884127 -0.021764915
0.038562305 -0.025943423 -0.035019986 -0.02849017 0.030243624 -0.017283775 -0.04138605 0.114137925
0.001948015 0.09712901 -0.0053435434 -0.026801022 -0.026210321 0.010666903 -0.016185226 -0.02842904
-0.045861915 0.046748783 0.04017835 0.029658902 0.050942704 0.016607229 -0.044955675 0.053341925
-0.056726284 -0.04418778 -0.0194392 -0.021722237 0.031227319 0.027409323 0.073246464 -0.027187739
0.06104114 -0.048358746 -0.042653814 0.008703059 -0.00059286563 -0.020977724 0.02681783 -0.021363454
-0.045845877 -0.038514487 0.10261064 -0.04879756 -0.04178057 -0.033695377 -0.024320288 -0.0014276947

conv1.1.running_mean f4 [128]
00000000: 78ca d93c c5f8 40bc e1c8 793c 9e87 e1bb
00000010: 267a 1cbc 162e 2fbc a589 973b 0a81 0639
00000020: cd0e 6cbb 5b0f 8b3c 8166 073c 25ec fcbc
00000030: 9bae 843c 7516 53bc 96c1 3ebc c518 ac3b
00000040: bb16 8abb b5c2 973c 993e b5bc c09b 2e3c
00000050: b6f9 893b d980 3a3b d466 703c dfba ad3a
00000060: e581 033d 2ba4 eebc 2107 87bc f923 5b3c
00000070: f324 833b ee8f c13c f76f 96bc bdb0 fa3b
00000080: 77b7 823c ab78 873c 7f65 ad3c f587 173c
00000090: 99aa 2b3d 8421 813c 40e6 96bc bcb4 1ebd
000000a0: 40e4 153c 451f ad3c a2c3 843c fe94 293d
000000b0: e23c d4ba 74d0 0d3c 0ef6 cfbc 5684 f73a
000000c0: fd45 07bd 9f49 db3c 25de 4fbb 6e81 17bd
000000d0: 84d7 b83c d2c4 0abc b0c4 a13c f0d4 79bc
000000e0: 19d7 7d3c 89e3 7f3b 55ff c4bc 1cd0 d3bb
000000f0: 7d4c 523c 3f63 d93c 5949 dbbc 8b35 c1bb
00000100: ef30 9e3c f32b 1c3c 4d7c 663c 7476 9ebc
00000110: d027 1dbd 0e31 e7bb 9a8e a1bc 0429 ca3a
00000120: ec46 3dbc a7d2 04bd 8773 af3c 456b 79bc
00000130: b23a 1e3d 503f 113d 734c 5abd e48c b73c
00000140: 27e5 b93c 7611 ca3a ff69 03bb 8e97 573c
00000150: 4b0e cfbb b72c eebc 317f 833c 8ab8 b7bc
00000160: aadc a13c b05a 41bc 0b83 dbbb 1e65 e8bb
00000170: 0776 843c 8870 b03c 6308 0ebb 2182 17bd
00000180: b41c 8ebc e0c9 2bbc 6522 86bb d15a bebb
00000190: 3fa7 82bc e6e3 163c 3b97 97bc 855a d53c
000001a0: ef20 813a fa43 cabc 85a7 adbc a153 b6bb
000001b0: c1f3 8b3a 2f7a 8d3c 907a b63b 072d a3bc
000001c0: 53f2 b13b 0d64 183c a9c3 593b 03af 113b
000001d0: 604f 1ebc 142f 56ba fb8e 69bc fe02 9fbb
000001e0: 89d8 fb3c dd9f d0bc 804a 24bc 472f 40bd
000001f0: d2a7 953c bab2 733c 4317 103c 3627 b0bc
0.026585802 -0.011778061 0.015245647 -0.006882622 -0.009550607 -0.01069214 0.004624563 0.00012827307
-0.0036019564 0.016975095 0.008264185 -0.030874321 0.01619654 -0.012883772 -0.011642834 0.005251976
-0.0042141355 0.01852546 -0.022124575 0.010657251 0.004210676 0.0028458147 0.014672954 0.0013254544
0.0321063 -0.029131016 -0.016482892 0.013375276 0.0040022074 0.023628201 -0.018363936 0.0076504634
0.015956623 0.016537031 0.021166561 0.009248723 0.04191074 0.015763052 -0.018420339 -0.03874658
0.009148657 0.021133075 0.016206566 0.041401856 -0.0016192461 0.008655656 -0.025385883 0.0018884044
-0.03302573 0.026768504 -0.0031718102 -0.03698867 0.022563703 -0.008469777 0.019747108 -0.015248522
0.015493178 0.0039045534 -0.024047533 -0.0064640176 0.012835619 0.026536582 -0.026768373 -0.0058962754
0.019310443 0.009531963 0.014067722 -0.019343592 -0.038368046 -0.0070554083 -0.019721318 0.00154236
-0.011552554 -0.032427456 0.021417392 -0.015223329 0.038630195 0.03546077 -0.053295564 0.02240605
0.022692276 0.0015416581 -0.0020052192 0.013158692 -0.0063188425 -0.029074056 0.01605186 -0.022426862
0.019758541 -0.011801407 -0.006698971 -0.0070921322 0.016169561 0.021538034 -0.002167248 -0.036989335
-0.017347671 -0.0104851425 -0.0040934556 -0.005809166 -0.01594889 0.009209609 -0.01850473 0.02604414
0.0009851734 -0.024690617 -0.021198044 -0.0055641686 0.0010677503 0.017270176 0.00556881 -0.019918932
0.0054304986 0.009301198 0.0033228195 0.002222956 -0.009662479 -0.00081704673 -0.014255281 -0.0048526516
0.0307429 -0.025466854 -0.010027528 -0.046920087 0.0182685 0.014874155 0.0087946085 -0.021503072

conv1.1.running_var f4 [128]
00000000: e8e2 cd3d f588 cd3c 679b 1a3d 9c09 6f3d
00000010: d578 d23d be3c 3d3d 9cf3 203d 4313 7a3c
00000020: 0029 943c c66d 473d 90d7 853d ebc1 d23d
00000030: 77aa 503d ca6c 883c a645 bf3d dce6 f43c
00000040: 4685 393c ce97 653d 88f2 e63d 296e 0e3d
00000050: 186e 423d af0f db3c 7ef5 db3c e7be 0e3d
00000060: 8cb8 8d3d 3730 7b3d 9461 843d eced fd3c
00000070: e15d 473d 3b63 123d 65ba 9b3d 5a34 6d3d
00000080: 4bf2 643d 0c2e e13d 407a 7d3d 25a8 5a3c
00000090: a0c2 253d 8058 c03c 8dff 043d cc14 033e
000000a0: 4b85 143d a69f 7a3d e8fd b23c 6359 823d
000000b0: 0b02 da3b 2b30 fb3c bbe3 133e 5368 ac3c
000000c0: 78fb bc3d 3069 8c3d 68cb 703c 1b39 883d
000000d0: 5eb2 5d3d cb64 643d 5355 ba3d f506 bd3d
000000e0: a9ce 323d d489 bc3d 4766 d13d db5f bf3b
000000f0: 629b 633d 20ca 253e 1607 7e3d c151 5d3d
00000100: 3450 8f3d d8de 773d 168d 9f3d c727 ae3d
00000110: 7528 9e3d 41b1 d13c 26c7 353d a617 133d
00000120: 42ee b03d 6751 e13d 765a d93d e502 933d
00000130: 7cec 443e d6fd 7f3d 0884 043e 4c14 063e
00000140: 3e50 ae3c a7f0 da3b e3d3 113c 8afa 623d
00000150: 099e fb3b 195f f83d d193 883d 1fef df3d
00000160: 0dff 913d 6354 af3d 0a5a d43c 4230 0e3d
00000170: ba0d a13d d3a1 383d 2779 013d ca2f 013e
00000180: 1752 f43c 4a47 f03b 6fb0 1a3d 3880 463c
00000190: e2d5 cd3d 436b 793c a2d4 913d a9be 043e
000001a0: 55fb bc3c 737f e13d 85d0 083e cb01 6f3d
000001b0: a59b ff3c b3b5 023d 3a93 c53c 8069 3b3d
000001c0: 2dd4 1e3d c7ea 963d b63c 813c 5637 073d
000001d0: f14d 803c a3d4 8a3c 12fc 583c 68ca ab3d
000001e0: 2450 b33d f68f 273d df14 9c3c a294 443e
000001f0: a687 b43d 5063 a13d e8d9 0b3d 66cd df3d
0.100530446 0.02508972 0.03774586 0.058358774 0.10276953 0.046200506 0.039294824 0.015263381
0.018085957 0.048688672 0.06535256 0.10290893 0.050943818 0.016653437 0.09339456 0.029895239
0.011323279 0.056052975 0.11276728 0.034773026 0.047468275 0.026740877 0.026850458 0.034850027
0.06919965 0.061325278 0.06463924 0.030997239 0.048673514 0.035739165 0.07603911 0.057911254
0.05589513 0.10995111 0.061884165 0.013345753 0.040468812 0.0234797 0.032470275 0.12800902
0.03625993 0.06118741 0.021849588 0.063647054 0.0066530756 0.030662617 0.14442341 0.02104584
0.09227651 0.068560004 0.014696933 0.06651517 0.054125182 0.055760186 0.090983056 0.092298426
0.043654118 0.09205976 0.10224586 0.0058402843 0.055568106 0.16190386 0.062018476 0.054033045
0.069977194 0.060515255 0.07790582 0.08503681 0.0772256 0.025597217 0.044379376 0.035911225
0.08639194 0.110018544 0.10612957 0.071782865 0.19230837 0.062497936 0.12940991 0.1309368
0.021278497 0.00668152 0.008900615 0.055414714 0.0076787514 0.121275134 0.06668819 0.109342806
0.07128725 0.08561017 0.02592184 0.03471399 0.07863946 0.045076203 0.03160968 0.12615886
0.0298243 0.007332717 0.037765916 0.012115531 0.100505605 0.015223327 0.071206346 0.12963356
0.023069063 0.11010637 0.13360794 0.05835132 0.031202147 0.031911563 0.024118055 0.04575491
0.038776565 0.07368999 0.01577602 0.033011757 0.015662165 0.016947096 0.013243692 0.08388215
0.0875552 0.040908776 0.01905292 0.19197324 0.088149354 0.078802705 0.03414336 0.109278485

conv2.1.weight f4 [64, 128, 5]
00000000: 3f48 5cbc 7bf6 c53a 166e bc3c 61f6 bdbb
00000010: 4b62 35bc 24fe 24bd fa7e 05bc 450a 8abc
00000020: 2e3e 3cbc 1fef e7bc aaf1 4cbd b532 60bd
00000030: 1186 2cbc 1622 82bc 3a9c c43b f521 7aba
00000040: 6526 b53b d970 37bc 9f74 933c ce80 fdbb
00000050: 28ff a4bc 64b0 bd3c 36ca 29bb 5be7 c83c
00000060: 5d60 2b3a d61c dd39 1211 643c a164 543c
00000070: 6032 7b3c 7eba 4cbc e901 e3bc 1912 acba
00000080: c5d4 ecbc de7b 063c 3be5 1b3b 7421 193d
00000090: 8dcc 203c a715 eabb c9d4 97bc aa1b c23b
000000a0: 0140 bfbc 2c1d 23bc 82dc 2a3c 8095 50bc
000000b0: 611e 0b3c 3638 68bd 640d 33bd bd4a 70bc
000000c0: 9325 86bc a7d6 01bd 7ce0 dbb8 6480 a2bc
000000d0: 8c0d 3dbc 531f f5bc a809 83bc e288 e63c
000000e0: 0ce0 08bc daea a0bc e89c 19bc cd64 cb3c
000000f0: d2b0 29bc 7e3c 23bd f971 3bbd 3b22 c0bc
00000100: a066 1ebd 5cb9 23bd 79bb d8bc 6d85 bdbc
00000110: 48b2 8abc ce54 87bd 3ff3 d0bb 4335 93bc
00000120: 51b3 58bb 1f41 bfbb 4944 a9ba 80eb 4fbc
00000130: 3d5c c4bb 4808 613c 2aaa b33b f25c bdbc
00000140: 5b5f 60bb 7532 32bc 8fa4 7ebc 1ebf cfbc
00000150: 541d 98bc 9d62 68bc 2941 5ebb 24cc 80bc
00000160: 42a4 62bc a84c 9cbc fbb8 6ebc b5ac 893c
00000170: 8161 33bc 39c7 033c dc54 693c 6c28 84bb
00000180: ba15 4ebb 8913 8f3c 8aec 26bc 5390 dcbb
00000190: 3915 033d ed98 f83c 1a1e 393c 208b bc3c
000001a0: c51b 19bb 5762 19bc f94d 2bbb 7381 8bbb
000001b0: 26ad 5d3c 9955 1fbd c558 be3b 454e c7bc
000001c0: c363 62bc 4441 efbc ef10 c8bb c01e c1bb
000001d0: 75c0 b3ba 2c5c 80bc f837 c73c d444 21bd
000001e0: 501c 0bbc caeb e1bc 95ae fdbc 2c43 09bd
000001f0: 6d8c aabc 529e 123c 05fe 8ebb ac8b 09bd
00000200: 9fd5 77bb 84e9 1fbc 6775 d4bc c34c f83c
00000210: aca4 553c d041 863c 3cd7 b03c c79b c43c
00000220: 4df9 eaba f5fb 1ebd ece9 febb 39a9 d13b
00000230: f425 67bd 147f 9fbb d35d 92ba 2ebd cfbc
00000240: c1b0 a8bc 5e4a c1bc 8ccc 393b a4e4 31bd
00000250: f9d6 eabc be28 bd3c b36b d13a 0315 9e3c
00000260: 6e10 303c 99a7 993c 45f5 c0bc 0e40 1fbd
00000270: ff77 ccbc ce53 f1bb 8cf1 933b bc7c f9bc
00000280: 8c01 e5bc d8a9 51bc 5ad8 91bc 0449 1fbd
00000290: e78e 2fbd dfd6 81bc 507a c8b9 1054 0ebd
000002a0: 9b53 0cbd 7cfd 75bc 30aa 81bc 34d2 003c
000002b0: c25e 983b 9b4b 5fbd b286 d03b c8bd c3bb
000002c0: 5e6b d6bc dc66 b2bc b23e 1ebd c67f f2bb
000002d0: ee49 26bd d59d d3bc f9be 15bd 1189 feba
000002e0: 34be a0bb 90f8 7a3b 7f2e 3fb9 1057 f6bb
000002f0: 21ae cdba 257b e3bc 6f02 eebc 6c9d 873c
00000300: c952 a6ba 5c9c cf3c 11e6 0bbd 3fbf 36bb
00000310: f9ee 7a3c c196 9dbc ceaa 523a 0dea a4bc
00000320: 550d 053b 3792 873c 8e75 6ebc de24 903a
00000330: a69e 04bd 2d36 95bc cc0f 88bc 10d2 d93a
00000340: d9d2 c6bc f983 c7b9 d551 5abc 4200 dfbb
00000350: 9093 913b e0bd 30bb 9274 d83b 1d5b 8cbc
00000360: 71dd f0bc 2309 4c3a d7b8 89bc f97e f0bc
00000370: 39bb d73c aef6 343d 038d c93b 4f01 8c3b
00000380: c3f1 a1bc d036 e1bc 262b aebc e9a1 2cbd
00000390: b587 92bc 78f1 f2bc 3c9e 4dbc b7ab 043b
000003a0: 7c73 563b 0d9d 9b3c 9593 59bc a95b 37bd
000003b0: dea9 2bbd 55b9 e4bc 838f cebc 2c6b 64bd
000003c0: b9cc faba d30e ec3b 1cb4 fb3c b9e2 bf3c
000003d0: 06c1 8ebb e425 9138 3ef3 68bc b0b0 a6bc
000003e0: d9f6 2fbd d8c6 0f3c cf8a 4d3c ea90 33bd
000003f0: fb01 cbbc d44a cbba d403 613b dbea e43c
-0.013444959 0.0015103364 0.023001712 -0.005797193 -0.011070798 -0.04028143 -0.008147949 -0.0168506
-0.011489434 -0.028312264 -0.050035156 -0.054735858 -0.010530011 -0.015885394 0.006000069 -0.0009541803
0.0055282586 -0.011196339 0.017999945 -0.007736302 -0.0201412 0.023155399 -0.002590788 0.024524381
0.00065374916 0.0004217389 0.0139200855 0.012963445 0.015331835 -0.012495635 -0.027710872 -0.0013127952
-0.02891005 0.008208243 0.0023787755 0.03738542 0.009814394 -0.0071436944 -0.018534081 0.005923708
-0.02334595 -0.009955686 0.01042855 -0.012730956 0.00849113 -0.056694232 -0.043713942 -0.0146662565
-0.016375339 -0.03169885 -0.00010484547 -0.019836612 -0.011538874 -0.029922163 -0.015995815 0.028141443
-0.008354198 -0.019643236 -0.009375788 0.024828339 -0.010357099 -0.03985261 -0.04576299 -0.023453822
-0.03867209 -0.039971694 -0.026456581 -0.023134911 -0.016930714 -0.06607972 -0.0063766534 -0.017969733
-0.0033065865 -0.0058366205 -0.0012914027 -0.012690425 -0.005992441 0.013734885 0.0054829316 -0.023115609
-0.0034236524 -0.010876288 -0.0155421635 -0.025359686 -0.018568672 -0.0141836675 -0.003391335 -0.015722342
-0.013833107 -0.019079521 -0.01457047 0.016805986 -0.01094854 0.008043104 0.014241423 -0.004033139
-0.0031446056 0.01746537 -0.010188231 -0.006731072 0.03200266 0.030346358 0.011298681 0.023015559
-0.00233625 -0.009361825 -0.0026139005 -0.004257375 0.013530051 -0.03889999 0.005808922 -0.024329314
-0.01381773 -0.029205926 -0.0061055343 -0.0058935583 -0.0013713973 -0.015668951 0.02431868 -0.03937228
-0.008490637 -0.027578253 -0.030967036 -0.033511326 -0.020818913 0.008948879 -0.0043637776 -0.033580467
-0.0037816537 -0.009760264 -0.025934888 0.03031004 0.013039749 0.016388804 0.021587007 0.024000062
-0.0017927081 -0.038814504 -0.0077793505 0.0063983467 -0.05643268 -0.004867444 -0.0011166878 -0.025358763
-0.020592095 -0.023595031 0.002835068 -0.04343094 -0.02866696 0.023090716 0.0015977531 0.019297129
0.010746105 0.018756675 -0.023554454 -0.038879447 -0.024959562 -0.0073647266 0.0045148786 -0.030454986
-0.02795484 -0.012796842 -0.01780336 -0.038887993 -0.04286089 -0.015849529 -0.00038238103 -0.034748137
-0.03425942 -0.015014049 -0.015828222 0.007862616 0.004649968 -0.054515462 0.006363713 -0.0059735514
-0.026174244 -0.021777563 -0.03863401 -0.0074004857 -0.04059785 -0.025832096 -0.03655908 -0.0019419511
-0.0049054865 0.0038295127 -0.000182325 -0.007517703 -0.0015692153 -0.02776868 -0.029053895 0.016554557
-0.0012689467 0.025343113 -0.034154955 -0.0027884988 0.015315765 -0.019236924 0.0008036316 -0.020131135
0.0020302136 0.016549213 -0.014554394 0.0010997315 -0.03237786 -0.01821431 -0.016609095 0.001661839
-0.024270462 -0.00038054565 -0.013325174 -0.0068054507 0.0044426396 -0.0026968643 0.006605693 -0.01713329
-0.029402466 0.0007783344 -0.016811771 -0.02935742 0.026334392 0.044180565 0.006150843 0.004272617
-0.019768601 -0.027491957 -0.02126081 -0.042146597 -0.017886976 -0.029656157 -0.012549933 0.0020243952
0.0032722643 0.018995786 -0.013279815 -0.04476515 -0.041910045 -0.027920404 -0.025214916 -0.05576627
-0.0019134498 0.0072039156 0.030725531 0.02342354 -0.0043565063 6.9211965e-05 -0.01421815 -0.020347923
-0.04296002 0.008775435 0.012545302 -0.043839373 -0.024781218 -0.0015509971 0.0034334557 0.027944019

conv2.1.bias f4 [64]
00000000: 92bb e3b2 1cd4 8135 8f05 a034 9fe9 42b5
00000010: 5d0b 58b3 08ac 0f34 95a7 0235 48b5 1eb6
00000020: 713e 94b3 b41e b2b4 4198 cfb5 87aa 1335
00000030: 483c 4e33 adf3 3935 bb74 db33 25a3 9433
00000040: 5f3f 0eb5 b559 0bb6 cc0b 0fb3 c138 cb33
00000050: d759 9534 9eca a6b1 eb85 6db5 db08 3cb3
00000060: 63cc 0436 ceaf c7b4 0972 abb4 626e c7b4
00000070: 2f70 b135 96b2 2bb5 2409 fd33 c354 6e35
00000080: f921 bab4 6d64 1fb5 fa40 19b4 b6c5 c9b3
00000090: 61a9 9534 30e3 5b35 b37f 4cb4 3f3d 83b5
000000a0: c98e bb35 cde3 80b4 fa84 9934 3f5a 2db4
000000b0: 3859 bc34 a46c c8b3 0e5d 0634 dc52 38b5
000000c0: 3fae 83b4 e339 9434 e7b6 25b3 392e 2a35
000000d0: 3e40 8a34 d573 1033 857b 8a34 d6bf b833
000000e0: f14b adb4 a85a 57b4 b70a 1b34 5cd1 35b5
000000f0: aa24 94b4 4f9a 08b4 9525 49b5 b1d7 ac34
-2.6511575e-08 9.672981e-07 2.9806367e-07 -7.2610595e-07 -5.0301754e-08 1.3380497e-07 4.867264e-07 -2.3649354e-06
-6.903145e-08 -3.3177423e-07 -1.5467014e-06 5.500992e-07 4.8017938e-08 6.9272465e-07 1.0219215e-07 6.921463e-08
-5.299134e-07 -2.076483e-06 -3.330551e-08 9.4632476e-08 2.781878e-07 -4.8542708e-09 -8.8484256e-07 -4.3780215e-08
1.9788502e-06 -3.7194553e-07 -3.1934204e-07 -3.7146953e-07 1.3220177e-06 -6.396234e-07 1.1782893e-07 8.8785254e-07
-3.4669918e-07 -5.9378254e-07 -1.4272874e-07 -9.395755e-08 2.7876652e-07 8.191446e-07 -1.9045437e-07 -9.778086e-07
1.3974142e-06 -2.4007605e-07 2.8595224e-07 -1.6144712e-07 3.5082644e-07 -9.3329874e-08 1.2513576e-07 -6.866592e-07
-2.4527432e-07 2.7609266e-07 -3.8583405e-08 6.33972e-07 2.5751245e-07 3.363296e-08 2.5794375e-07 8.6030624e-08
-3.2279016e-07 -2.0056416e-07 1.4439398e-07 -6.773241e-07 -2.7593825e-07 -1.2722124e-07 -7.4933024e-07 3.2194433e-07

conv2.2.weight f4 [64]
00000000: 8940 4b3f 6a38 613f 0da3 4c3f 1433 693f
00000010: d0f1 453f 554e 4f3f dbfe 5e3f 2baf 533f
00000020: 4e75 533f 78e1 473f 2ee5 583f 1574 583f
00000030: de4f 413f b781 523f 5db0 483f 7f81 483f
00000040: 4bff 513f 3cd0 523f 009a 3f3f 548b 423f
00000050: 4b07 593f 6cab 643f 161e 513f 559f 363f
00000060: 1cbe 5b3f ae9b 423f d0a9 583f e00f 513f
00000070: e35a 523f bc57 613f 1e65 4d3f bd47 6c3f
00000080: c48a 553f 64d8 543f 86cb 453f 3549 5c3f
00000090: f0cc 4c3f 6e78 733f fb32 543f 45a1 513f
000000a0: 519a 5f3f 582d 523f 073c 533f 8bdc 3f3f
000000b0: f1e3 543f c401 503f e8a4 623f f4b6 4d3f
000000c0: 4a02 543f 1bbe 5f3f a5c3 3f3f 809b 5b3f
000000d0: 12a1 473f 2292 473f 0a80 5d3f 4fe4 593f
000000e0: 5c9e 643f 9d69 533f 1610 5b3f b7ed 493f
000000f0: 0991 3d3f 593f 3d3f 6c12 473f a883 3d3f
0.7939535 0.87976706 0.79936296 0.91093564 0.773221 0.809789 0.8710763 0.8268916
0.8260087 0.78078413 0.847247 0.8455213 0.7551249 0.8222918 0.7839411 0.78322595
0.8203017 0.8234899 0.7484436 0.7599385 0.84776753 0.8932407 0.8168653 0.7133687
0.8583696 0.760188 0.84634113 0.8166485 0.8216993 0.880245 0.8023242 0.92296964
0.83414865 0.83142686 0.7726368 0.86049205 0.8000021 0.95105636 0.8289029 0.818867
0.87344843 0.8210044 0.8251347 0.74945897 0.8316031 0.81252694 0.88532877 0.8035729
0.8281599 0.8739945 0.74907905 0.8578415 0.7798015 0.77957356 0.865235 0.85113996
0.8930414 0.8258303 0.8557142 0.7887835 0.7404943 0.73924786 0.77762485 0.74029016

conv2.2.bias f4 [64]
00000000: 8c2a 71bc e957 9e3d 669b bcbc 4c4a 53bc
00000010: e25a 083d c161 32bc fc04 57bc e632 1fbb
00000020: 7ec1 f039 4a9b 18bd cd45 7c3d 7d65 25bd
00000030: 71f4 cd3b 23b5 27bd 270e ad3b 0811 f23c
00000040: 9aec c43c 9eb9 5dbd 7694 babc 75f7 8bbd
00000050: 7ff7 e83c 71e6 3f3d b11e 163d 201c f2bc
00000060: e2c6 ba3c db87 52bb 2619 a23c cc03 c73b
00000070: c4b8 8abb ba20 18bd fe48 da3c 6aba 0fbd
00000080: 03f4 10bd 2ba1 4ebd a3ea 3fbc 6b49 6a3c
00000090: 0312 1abd 85bf 033d 5a2e 11bd 6386 af3c
000000a0: ccdb 253d f018 00bc 1026 a9bc 48ee 8f3b
000000b0: 94fd a23c d627 9f3c f3c1 993c 0413 8a3c
000000c0: cecc 0cbd fc13 1bbd 50a3 39bd 6cc5 aebd
000000d0: 608b f43b 416b d2bc eabf 18bd ca57 e83c
000000e0: 087a 4fbd 65c3 273d 41a3 97bc e37f 8e3c
000000f0: fc0a 1cbd 85e4 bebc 82a2 0fbb 1004 e3bc
-0.014719617 0.07731611 -0.023023318 -0.012896132 0.033289798 -0.010887564 -0.013123747 -0.0024291812
0.0004592053 -0.03725747 0.061590005 -0.04037999 0.006285243 -0.04094423 0.005281228 0.029549137
0.024038602 -0.054132096 -0.02277587 -0.06834308 0.028438328 0.046850625 0.036650363 -0.029554427
0.022799913 -0.0032124433 0.019787382 0.0060734507 -0.0042334516 -0.037140585 0.026646134 -0.035089888
-0.035388958 -0.05044667 -0.011713657 0.014299731 -0.037614834 0.03216507 -0.035444595 0.021426385
0.040492818 -0.007818446 -0.020648032 0.004392419 0.019896306 0.019428175 0.01876924 0.01685477
-0.034375004 -0.037860855 -0.045321763 -0.08533749 0.007462904 -0.025685908 -0.0372924 0.028362174
-0.050653487 0.040957827 -0.018510463 0.017394966 -0.038096413 -0.023302326 -0.002191693 -0.027711898

conv2.2.running_mean f4 [64]
00000000: 9048 b6bf d983 75bf 6307 12be 4e38 d2bd
00000010: 10d1 29bf d6f5 0bbf ea67 8c3f d961 e3be
00000020: 91bf 80be baa9 68be 66e8 02bf dd85 e5bd
00000030: bbff 97bf 30ae 52bd 25a6 12bf 9e52 22bf
00000040: 1756 06bf a352 94bf 8bfa 89bf ea2a f43d
00000050: 0dad 70bf bb74 993b d614 00bf cb1f 5bbf
00000060: f8a4 64bf 476c 53bf d159 a2bf 1ac4 4abf
00000070: 3e6c a4be 1565 53be 56a7 9ebf 3258 c13d
00000080: 6d31 a03e 69d0 5e3f 5984 ccbf 204b 0ebf
00000090: 984e 3cbf 2098 02bf d830 7fbe 830f 9abf
000000a0: 11f5 f4be a9e1 ffbe 3369 443e f6a3 fcbe
000000b0: 00a5 e3be 4d8c 16bf ed8b 71bf 9764 293f
000000c0: 75b0 213e 95e0 8b3e 7dff 37bf ee3a 0c3f
000000d0: ecbb 3abf 16d5 e7be 88cc 693f bc6b 4cbe
000000e0: ceba e63e a2f8 b2bf 5f71 3cbe 2f18 21bf
000000f0: db22 c4be 03a8 2ebf 776b fabe 6f1d 40bf
-1.4240894 -0.9590431 -0.1426063 -0.102646455 -0.6633463 -0.5467199 1.0969212 -0.4441059
-0.25146154 -0.22720996 -0.5113586 -0.11207173 -1.1874918 -0.05143565 -0.57284766 -0.63407314
-0.5247511 -1.1587719 -1.0779585 0.11922248 -0.94014055 0.004683105 -0.50031793 -0.8559539
-0.8931422 -0.82587093 -1.268366 -0.7920548 -0.32113832 -0.20644028 -1.2394817 0.0944065
0.3128771 0.8703676 -1.5977889 -0.5558338 -0.73557425 -0.51013374 -0.24920976 -1.2035984
-0.4784322 -0.49976853 0.19180755 -0.49343842 -0.44461823 -0.5880783 -0.94354135 0.6616911
0.1578997 0.2731978 -0.7187422 0.5477742 -0.72942996 -0.4527976 0.91327715 -0.19962972
0.45064396 -1.3982127 -0.18402623 -0.62927526 -0.38307843 -0.68225116 -0.48910114 -0.7504491

conv2.2.running_var f4 [64]
00000000: 1ea5 9e3f d23b 0340 009f ef3f 5989 6b3f
00000010: 4bcc a43f 1554 803f 94a5 543f 6300 963f
00000020: 90d6 613f 1118 923f 2182 8a3f e886 1b3f
00000030: 3250 b23f 036f 713f 0805 243f 68f4 b13f
00000040: fac5 503f 56dc 913f 62df a83f d439 b23f
00000050: d3bd 8d3f e6ea 8a3f 74a6 473f d525 dc3f
00000060: 63d9 1040 575f b83f 2928 c33f ad09 c13f
00000070: 1146 1f3f 831c a93f b33c 7c3f e1a8 a73f
00000080: 6fcf 883f a2a4 1240 da68 dc3f cc3b 633f
00000090: db1b d63f 942b d23f 84da fc3f eaac a33f
000000a0: aeb2 643f 8d35 7b3f 59cd 953f 6489 e03f
000000b0: a8a9 703f 55c2 ac3f ca8b 943f 3d83 4b3f
000000c0: f5d2 0140 21b1 533f 98ae 0d40 f83e 6a3f
000000d0: e78a 943f 61e5 bb3e fd03 9b3f d2c7 513f
000000e0: 99c9 bd3f 6217 c53f 8f59 5f3f bbf7 823f
000000f0: 48e2 c53f c0e2 703f 8347 813f 63f7 eb3f
1.239414 2.0505261 1.8720398 0.9200645 1.2874845 1.002566 0.8306515 1.1718868
0.8821802 1.1413594 1.0820962 0.60752726 1.3930724 0.94310015 0.6407018 1.3902712
0.8155209 1.1395366 1.3193171 1.3923898 1.1073555 1.0852935 0.7798836 1.7199045
2.2632682 1.4404095 1.5246631 1.5081078 0.6221629 1.3211826 0.9853012 1.3098413
1.0688304 2.2912984 1.7219498 0.8876312 1.6727251 1.6419549 1.9754186 1.2787144
0.89335144 0.98128587 1.1703292 1.7541928 0.94008875 1.3496805 1.160516 0.7949713
2.0285008 0.8269215 2.2137814 0.9150233 1.160489 0.3669844 1.2110592 0.81945527
1.4827148 1.5397761 0.8724603 1.0231851 1.545968 0.94095993 1.0099949 1.8434871

conv3.0.weight f4 [64, 64, 5]
00000000: 10cd a6bc b5c3 4d3d 41a8 323d 35d2 483c
00000010: 9e6c 2c3d 281b 493b 9690 6b3c 1cd7 f33c
00000020: 2406 0abc aea0 45bd c250 88bd 645f b9bc
00000030: 893a bebc 4de2 99bc a195 55bd 87ae bbbc
00000040: dad7 9fbc bed1 b43d 9796 1dbd 730a bebc
00000050: ce14 a1bc b6b5 2b3d 8fb8 1fbd b1d8 b23b
00000060: e217 4c3d 84b0 083c d7a6 1fbd 9a7e b2bc
00000070: c481 e53c 76a1 60bd 7d40 5b3b a4a3 1abd
00000080: 809d 07bd b06a 6f3c 29f3 273d 394b a9bc
00000090: fdeb 7ebd 1dc8 073d 9250 91bd 04eb 2fbc
000000a0: cba1 50bc 6923 33bd 5be8 d93c 6557 6f3b
000000b0: 2b2f 5dbc e64b 84bd 365c 9cbc 76de a43c
000000c0: 5878 d0ba 2462 0b3d 324c 98bc 02ae 1abd
000000d0: ab28 67bc d3b2 57bc 893d 48bb bc12 3cbd
000000e0: 8e3c 13bb 76d8 94ba a89f 09bd 64f9 31bd
000000f0: 5404 ac3c 2a0e cfbb 6c65 41bd 2cd1 993c
00000100: 34c8 67bc 78e4 b7bc 05e2 06bc 8e38 43bc
00000110: 343f 9d3a 42be 5dbd 0770 793d cc62 cebc
00000120: ea7b 04bc 5ef0 a5bc 1e32 2bbd 39b2 8abd
00000130: 079a ffbc a414 7d3c 33b7 0bbd f799 4f3d
00000140: 8003 8e3c e478 593d 30de ffbb 5094 31bb
00000150: 64a1 13bd dd62 c5bc 9f9c b9bc f3cc e73c
00000160: c3c8 7abc 09eb 31bd 972e ef3c cf14 fd3c
00000170: b73f 4b3c 74aa c43c aff1 fa3c e8ad 1dbd
00000180: 9e00 ecbc 4831 a3bb d4fb b5bb 930f 583c
00000190: c9e6 eb3c e103 623d 2257 0bbd a71a 1f3d
000001a0: 59a9 81bb 11ac 0c3d e6f1 5bbd 828e 333d
000001b0: 6f44 fe3a 88ce dabc c31a 37bd af28 bb3c
000001c0: 0069 2bba dd65 15bc 34fa da3c 6f09 ac3c
000001d0: a86c d73b 8a21 0e3d a8d9 473b 2913 4e3d
000001e0: 78ea 883d 96cb 38bd 0f69 243d 599e c9bc
000001f0: f1e9 39bd 8a5f 00bd 0c8c 0dbc e3fc b5bc
00000200: 4abb 7ab9 37b4 0abd 6344 093c 5dd0 b13c
00000210: 6fad 1d3c e56d 1c3d c0eb 8f3d 6bd5 fabc
00000220: 6dc7 e43a 6df7 f6bc 6c89 e0bc 7a73 52bb
00000230: 7979 cabb 431c 84bd 42a3 ae3b 8bdc f73c
00000240: 65c3 61bc 5405 373c 39c7 ce3c a6ec 3f3c
00000250: 0135 393d 2d59 973d 6fba c53b b337 af3c
00000260: 63e1 693b ec81 8fbc 2a58 3f3c 6248 6abc
00000270: 75f0 65ba e0db 323c 8f67 0fbc 3408 5fbb
00000280: 4aa9 73bd 107c 5fbd 70a3 d5b9 594e 3bbc
00000290: 0ee7 013a 4918 9ebd 7f70 39bd 8d27 0f3c
000002a0: bc60 7dbc 65b7 afbc c45e 4e3c b1c9 7dbc
000002b0: 8c17 e2bb dc74 fa3c b7a6 e7bb a3ce babd
000002c0: 3a1b 473c 813d 6dba 6b02 2dbd 175b 19bc
000002d0: 117b 43bd ef48 d53c 8c1e 8cbc a81d 0d3d
000002e0: da6a 1ebd 332d e2bd c0ac 04bc fc9d a13a
000002f0: 9eb9 2abd e319 a03c f092 ff39 cd93 61bc
00000300: aef4 c53c 072a 92bb c502 dd3c 2771 7f3c
00000310: a99b 65bc ca05 2abd 8373 893a 3dcd 3b3d
00000320: 676d 2c3d 8665 b53c 714e 17bd f6ad 00b9
00000330: 4216 3dbd aed6 8e3d 977c f1bc 3340 dfbc
00000340: 147a 7f3c 13ee dbbb f1e2 e8bc 81f7 19bc
00000350: 2fc4 c8bc df6c 993b 1418 2bbc e774 c7ba
00000360: cd48 46bb d0a7 ecba 61c8 3fbd cd5e b1bc
00000370: 0153 3dbd a2bd a73c a506 883d d7b3 183d
00000380: e792 2abd 6731 37bc 1217 5bbc 92de bebc
00000390: 6a3a d7bb afca 33bc 3182 693c 4442 5c3b
000003a0: af68 503d fa54 b7bc d840 dfbc a367 08bd
000003b0: ebd3 29bc 4393 613d e413 34bd 8a54 1d3d
000003c0: 682c 173c 9bae afbc e325 9ebb ccbc 8abc
000003d0: e60d 1a3c b3f8 103d 0120 80bc 40f4 84bc
000003e0: 263b a5bc 0c5e debb 2278 243d 6b68 f6bc
000003f0: e5fe 56bc 05f5 8a3c 590e f23c 4a17 24bd
-0.020361453 0.05023547 0.04361749 0.0122571485 0.042095773 0.0030686352 0.014377734 0.029765658
-0.008424316 -0.04824894 -0.06656028 -0.022628494 -0.023221271 -0.018784666 -0.05214465 -0.02291037
-0.019512106 0.08829068 -0.03847369 -0.023198342 -0.01966324 0.04192134 -0.03899437 0.0054579605
0.049827464 0.008342866 -0.03897747 -0.021788884 0.028015979 -0.05484148 0.0033455186 -0.037753716
-0.033109188 0.014612839 0.04100338 -0.020665752 -0.062236775 0.033149827 -0.07095446 -0.010737184
-0.012733887 -0.04373494 0.026600054 0.0036520597 -0.013500015 -0.06459789 -0.019086938 0.020125609
-0.0015905006 0.03402914 -0.01859102 -0.037763603 -0.014108817 -0.013165194 -0.0030554256 -0.045916304
-0.0022466513 -0.0011356014 -0.033599526 -0.043450728 0.020998158 -0.006318827 -0.047215864 0.018776499
-0.014146853 -0.02244781 -0.008232598 -0.011915339 0.0011996985 -0.054136522 0.060897853 -0.025193594
-0.008086184 -0.020256218 -0.041795842 -0.067722745 -0.031201376 0.015446816 -0.03411026 0.05068394
0.017335653 0.053093806 -0.0078084692 -0.0027096458 -0.036042586 -0.024094993 -0.02265769 0.02829597
-0.015306654 -0.043437038 0.02919702 0.030893711 0.0124053275 0.02400706 0.030632822 -0.038495928
-0.028808888 -0.00498024 -0.005553702 0.013187307 0.02879657 0.05517948 -0.034018643 0.038843777
-0.0039569554 0.034343783 -0.05369749 0.043837078 0.0019399057 -0.02670981 -0.044703256 0.022846548
-0.00065387785 -0.009118524 0.026730634 0.021000592 0.006574232 0.034699954 0.0030494723 0.05031124
0.06685346 -0.04511603 0.040139254 -0.024611639 -0.04538912 -0.031341113 -0.008639347 -0.022215312
-0.00023911629 -0.033863273 0.008378121 0.0217058 0.009623869 0.03819074 0.070273876 -0.030619344
0.0017454453 -0.030147279 -0.027409278 -0.0032112286 -0.0061790315 -0.06450703 0.0053295204 0.03025653
-0.013779496 0.011170704 0.025241481 0.011714136 0.045216564 0.07390056 0.0060341875 0.021388864
0.003568732 -0.017518006 0.011678735 -0.014299484 -0.00087714876 0.01091668 -0.008752718 -0.003403199
-0.05948762 -0.054561675 -0.00040748296 -0.011432254 0.00049553893 -0.07719476 -0.0452733 0.008737457
-0.015464958 -0.021449754 0.012595836 -0.0154899815 -0.0068997797 0.030573301 -0.0070694345 -0.09121444
0.012152487 -0.00090499973 -0.042238634 -0.009360096 -0.047724787 0.026035754 -0.01710441 0.03445211
-0.03867612 -0.11043777 -0.008097827 0.0012330408 -0.041680925 0.019543594 0.00048746867 -0.013768149
0.024164524 -0.0044605765 0.02697886 0.015590942 -0.014014163 -0.041509427 0.0010486696 0.045850027
0.04209652 0.022143137 -0.036940042 -0.00012271837 -0.046163805 0.06974541 -0.029478354 -0.027252292
0.015593071 -0.0067117303 -0.028428527 -0.009397388 -0.02450761 0.004682168 -0.010442752 -0.0015217335
-0.0030255795 -0.0018055383 -0.046821956 -0.02165165 -0.046221737 0.020476166 0.06641892 0.037280884
-0.041644003 -0.011181212 -0.0133722 -0.02329949 -0.006568243 -0.0109736165 0.014252231 0.0033608833
0.050881084 -0.022379387 -0.0272526 -0.03330196 -0.010365467 0.05507208 -0.04396428 0.0384107
0.009226896 -0.021445563 -0.004826294 -0.016935728 0.009402728 0.035393428 -0.01564026 -0.016229749
-0.020169806 -0.0067861136 0.04015363 -0.030079087 -0.013122295 0.016962538 0.029547857 -0.040061273

conv3.0.bias f4 [64]
00000000: df53 b7b3 139a a035 175d 8a34 e2cf 35b4
00000010: ec49 b2b4 c649 efb3 ff56 50b4 d170 2634
00000020: cae0 a535 b847 95b4 2a16 22b5 01dc cf34
00000030: fa9d 34b5 4832 e134 d038 c0b4 10d9 c333
00000040: fb62 e2b4 04d3 8cb4 01f8 0bb4 1b3d 7735
00000050: 6f1d 0a33 586a 03b4 fca9 f633 a7c1 29b4
00000060: aded 19b5 94dc f8b4 84a4 ff34 aca7 5b34
00000070: 3c03 4534 1cc7 8a35 096f 74b5 e9a1 c134
00000080: 00a8 41b5 469d 30b6 845b 60b5 9cda 08b4
00000090: 422e 8fb3 db01 d733 472e 92b4 3040 f534
000000a0: d239 0f36 323e 0fb4 861d ac34 1126 f8b5
000000b0: 2629 3ab6 5133 52b4 9e9b bbb4 196a 6335
000000c0: 2af2 43b4 a5bf 1a35 3479 c433 4983 4f35
000000d0: e1ae 03b4 9e94 7934 484d f434 7e9c 2a36
000000e0: ad54 74b5 80ce 38b4 f8dc 6832 d201 53b4
000000f0: 0701 17b5 f157 0ab4 f1a5 9d33 11f9 84b4
-8.5368576e-08 1.196577e-06 2.5772235e-07 -1.6932566e-07 -3.320887e-07 -1.1142724e-07 -1.9403159e-07 1.5500997e-07
1.235888e-06 -2.7805595e-07 -6.0381956e-07 3.8716828e-07 -6.728511e-07 4.19461e-07 -3.5804123e-07 9.1198785e-08
-4.2167798e-07 -2.6230566e-07 -1.3035607e-07 9.210359e-07 3.21574e-08 -1.2239013e-07 1.1486188e-07 -1.5809802e-07
-5.7342805e-07 -4.635409e-07 4.7617152e-07 2.0456963e-07 1.8348231e-07 1.033975e-06 -9.105866e-07 3.6066857e-07
-7.2142575e-07 -2.631759e-06 -8.3579675e-07 -1.2745517e-07 -6.667371e-08 1.0012055e-07 -2.722829e-07 4.568151e-07
2.1342316e-06 -1.334054e-07 3.2058978e-07 -1.8488519e-06 -2.7740111e-06 -1.9576443e-07 -3.494469e-07 8.471848e-07
-1.8248889e-07 5.764835e-07 9.149008e-08 7.7304554e-07 -1.2263946e-07 2.3243999e-07 4.550477e-07 2.5423064e-06
-9.10203e-07 -1.721146e-07 1.355442e-08 -1.9651569e-07 -5.625338e-07 -1.2884244e-07 7.341067e-08 -2.4768136e-07

conv3.1.weight f4 [64]
00000000: 720c 5a3f 6e94 493f 9439 5c3f 4a01 773f
00000010: 7bb1 5b3f f05e 733f 20f5 6f3f 955e 4f3f
00000020: 906a 7a3f 19e7 723f 564e 713f 7c66 753f
00000030: 7e92 563f d202 773f 4804 663f 8898 663f
00000040: cc21 623f fadc 7a3f 7628 6c3f e2fd 603f
00000050: 680e 6c3f 1bd8 283f b57e 6d3f c925 573f
00000060: d913 553f 586a 683f ff68 603f 33b7 5e3f
00000070: 37a7 603f a59f 6a3f 0d3c 7b3f 3a98 553f
00000080: 553d 613f b71a 813f f3c0 513f cda0 5b3f
00000090: 62b8 643f cc5a 523f 3320 753f 372f 603f
000000a0: 8085 653f a653 5c3f daf2 4a3f 343b 683f
000000b0: 9c73 5e3f bfaa 633f 80d4 5e3f 52d5 4e3f
000000c0: 1e04 7b3f 978b 7e3f 4c23 5b3f 773e 663f
000000d0: 3d52 5a3f 4a44 603f a0f5 4d3f f4d7 683f
000000e0: d2a2 603f f616 573f 287b 773f 7b20 623f
000000f0: 6466 733f 50be 643f cf6c 4a3f 24ed 5f3f
0.8517524 0.7874211 0.8602536 0.9648634 0.8581769 0.9506674 0.93733406 0.81003696
0.9781885 0.9488388 0.94260156 0.95859504 0.8381728 0.9648868 0.8985028 0.90076494
0.8833282 0.97993433 0.9224924 0.87887394 0.9220948 0.6595475 0.92771465 0.8404203
0.8323341 0.9078727 0.8766021 0.8699829 0.8775515 0.9164985 0.98138505 0.83435404
0.8798421 1.0086278 0.8193504 0.8579224 0.89343846 0.82169795 0.9575226 0.87572044
0.8965683 0.8606514 0.7927681 0.90715337 0.86895156 0.8893241 0.87043 0.8079425
0.9805316 0.9943175 0.85600734 0.89939064 0.85281736 0.876042 0.8045292 0.9095452
0.87748444 0.8401941 0.96672297 0.8833081 0.9507811 0.89352894 0.7907228 0.8747122

conv3.1.bias f4 [64]
00000000: cbd9 713d ee58 e2bb c0ce 943c a851 1c3d
00000010: d3f4 b33c 38c4 023d 9eee c53c 476b ff3b
00000020: aaf0 be3b 08d3 c23c c425 c13d 4204 d23c
00000030: 5584 94bb 708c c1bb 0257 9bbc 863c c23c
00000040: f8fd 6b3d 6804 acbc 8567 973d 85e5 5b3d
00000050: 6c7d 303d 22d0 05bc 5d07 d53c 3669 be3c
00000060: 8220 8bbc 3837 25bc 800d 9d3c 87a3 7f3c
00000070: 309c 373d f89c b03d fb10 b93d 170d 3bbd
00000080: 1867 6f3b a66b 003e 4a1b 6a3c 6fb6 f8bb
00000090: ebf0 f23c d130 023d b8ac 8e3d 4fdc a43c
000000a0: 47d9 3f3d 73a5 83bb a5db ac3c 3a8f 9b3c
000000b0: e846 383d 6a8c 4539 40fe 1c3d 1eae 1dbc
000000c0: 5c5d 423d 10fb 003e d22e 7fbb 147a a93c
000000d0: 1929 873c 329c 933d f3f8 893b ef64 b63d
000000e0: b9b8 373d 40ff 00bc 1c90 033c 885a 8a3d
000000f0: 327f 663d 401f 7f3c 0e48 e3bb b537 7e3b
0.059045594 -0.006907574 0.018164992 0.03816381 0.021967327 0.03192541 0.024161633 0.007794771
0.0058270292 0.023782268 0.09431031 0.025636796 -0.004532377 -0.005906634 -0.018962387 0.0237105
0.05761525 -0.020998195 0.07392792 0.053685684 0.04308836 -0.0081672985 0.026004488 0.023243528
-0.016983274 -0.010083966 0.019171476 0.015602953 0.044826686 0.086236894 0.09036442 -0.04566678
0.0036529955 0.12541065 0.014288733 -0.007590107 0.029655894 0.031784836 0.06966537 0.020124583
0.04683807 -0.004017526 0.021100828 0.018989194 0.044989496 0.00018839692 0.03832841 -0.009624032
0.047452316 0.12595773 -0.003893782 0.020688094 0.01649909 0.07207526 0.0042105853 0.0890597
0.0448539 -0.007873356 0.008029964 0.06755549 0.056273647 0.015571415 -0.00693608 0.0038790528

conv3.1.running_mean f4 [64]
00000000: e5c6 eebe 2b26 e5be fa4a e0be e4e6 01bd
00000010: a5e4 a2be ceba 173e d8e6 d03e 7dbe 263f
00000020: a9e8 853f f483 433e 8a78 9f3e 7176 48be
00000030: 1abb 7ebe 6fb8 88bc eb7a 823e 6332 8fbd
00000040: 12de 3cbe 3267 0bbe 553d d03a 2e45 ed3e
00000050: f4d5 51bf a446 78be 49cf 183f 693e 6abf
00000060: 8dac 11bf f29a d63b c764 24bf 04f2 e5be
00000070: d6b4 fdbe e214 89bf f7ff bb3e d02b 9cbe
00000080: d43d 5b3e 2e7c 38bf 116e b0be 534b 89bc
00000090: 1bd0 d5bc f340 33bf b1f8 cebc 9e6e b2be
000000a0: 7ee8 64bf 179a b9bd d25f ee3e e24f 2abf
000000b0: db9d a13d f59f d6be 2f7c 64bf 0e5d 39bf
000000c0: 05f8 1ebe d77a 89bf 186a c7bd 2f7c cc3c
000000d0: 5c67 cebe 60df 893e 6fea d33d 4f13 193f
000000e0: 64c7 9ebf d32d d4be d066 053e a5fb 2bbf
000000f0: 6c58 8bbe ae01 0c3f 73c5 413f e890 bfbe
-0.4663612 -0.44755682 -0.43807203 -0.031714335 -0.31815067 0.14817354 0.4080112 0.6513441
1.0461627 0.19093305 0.31146652 -0.19576432 -0.24876061 -0.016689507 0.25484404 -0.069920324
-0.18444088 -0.13613585 0.0015887419 0.46341842 -0.8196709 -0.24245697 0.5969129 -0.9150148
-0.56903917 0.0065492326 -0.64216274 -0.44911206 -0.4955203 -1.0709498 0.36718723 -0.30502176
0.21410304 -0.72064483 -0.34458974 -0.01675955 -0.026100209 -0.7002098 -0.02526507 -0.3485002
-0.89417255 -0.090625934 0.4655748 -0.6652814 0.07891437 -0.41918913 -0.8925199 -0.72407615
-0.155243 -1.0740613 -0.09737033 0.02496156 -0.40313232 0.26928234 0.10347449 0.5979509
-1.2404599 -0.4144121 0.13027501 -0.67180854 -0.27215898 0.54690063 0.7569191 -0.37415242
