nets/SCNN.pth (torch, 791791 bytes, 15 tensors)

conv1.0.weight f4 [128, 12, 100]
0	0x3cd0a67b	0.02547001
1	0x3cbe7e0a	0.02325346
2	0xbc01eeab	-0.007930438
3	0x3c88dab6	0.016705852
4	0xbc7f2ff4	-0.015575398
5	0xbbe42b92	-0.006963202
6	0xbcd81e16	-0.026381534
7	0x3a269552	0.0006354648
8	0x3c09072f	0.008363529
9	0xbd04d845	-0.032432813
10	0x3c409573	0.0117543815
11	0xbb3e2442	-0.002901331
12	0x3c855860	0.016277492
13	0x3b79d803	0.0038123138
14	0x3c831ed7	0.016005917
15	0x3b3c6ce2	0.0028751423
16	0x3cf04cb4	0.02933345
17	0x3c7d7855	0.015470584
18	0x3aacf850	0.0013196561
19	0x3cae7171	0.021294327
20	0x3b5c58db	0.0033622298
21	0x3c45b7ff	0.012067794
22	0x3b73448d	0.0037119717
23	0x3cf35805	0.029705057
24	0xbc2c4ff1	-0.010517106
25	0xbba6dead	-0.005092463
26	0xbb709dcc	-0.0036715148
27	0xbc7751b5	-0.015095164
28	0x39b511f9	0.000345364
29	0xbcfade32	-0.03062353
30	0x3c8b6b2d	0.017018879
31	0xbcfe446c	-0.031038485
32	0x3c306d68	0.010768272
33	0xbbc75936	-0.006083633
34	0xbc9fc621	-0.019503655
35	0x3bb7ef61	0.005613253
36	0xbbd7adf6	-0.006582017
37	0x3c364eb4	0.011127163
38	0xbbec4eb4	-0.0072115306
39	0xbc939fdf	-0.018020568
40	0xbadd4abd	-0.0016883236
41	0xbc7a1b88	-0.015265353
42	0x3b832626	0.0040023504
43	0x3c8ecba1	0.017431082
44	0x3c1da2c7	0.009621329
45	0xbc8bc6b0	-0.017062515
46	0x3c151baa	0.009100834
47	0xbaf96d40	-0.0019029751
48	0x3bbc9996	0.0057556136
49	0xbcc4e5e2	-0.024035398
50	0xbd0e2c81	-0.03471041
51	0xbca1afb1	-0.019737097
52	0xbcf40244	-0.029786237
53	0x3c3ba7ab	0.011453549
54	0xbb01f85b	-0.001983187
55	0x3afcf70d	0.0019299701
56	0x39435f5e	0.00018632176
57	0xbbf9fd41	-0.007629067
58	0x3c68cdeb	0.014209251
59	0xbcc474ae	-0.023981418
60	0xbb5069ab	-0.0031801264
61	0xbcb577c8	-0.022151843
62	0x3b828e4e	0.003984249
63	0xbc51d0c5	-0.012806122
64	0x3b81c79c	0.003960563
65	0xbc23583f	-0.00996977
66	0x3c80a94a	0.015705723
67	0xbcb779c5	-0.022396931
68	0xbcc59d0b	-0.024122735
69	0xbcd29f13	-0.025710618
70	0x3c3d406c	0.011551004
71	0xbb81ba64	-0.003958987
72	0x3c3cf249	0.011532375
73	0xbd0ff4c2	-0.03514553
74	0xbd2352db	-0.03987394
75	0xbd0d3b73	-0.034480523
76	0xbcfdb78a	-0.030971307
77	0xbb096015	-0.002096181
78	0xb94ec0c6	-0.00019717505
79	0x3c7870d6	0.015163621
80	0xbc89d4e3	-0.016825145
81	0xbc9808d2	-0.018558893
82	0x3c777f9c	0.015106108
83	0xbbf77142	-0.007551343
84	0x3ca45d3e	0.020063993
85	0xbaaeda14	-0.0013340139
86	0x3c9e478e	0.01932123
87	0xbc8b0192	-0.016968522
88	0xbc57bd09	-0.013167628
89	0x3bab1620	0.0052211434
90	0x396287f1	0.00021603682
91	0xbc668654	-0.014070112
92	0x3bef4557	0.007301967
93	0x3c14d1c1	0.009083212
94	0xbce52dd0	-0.027975947
95	0xbcb579cb	-0.022152802
96	0x3c93e4d5	0.018053452
97	0xbc5718f6	-0.01312851
98	0xbc27318b	-0.010204683
99	0xbcc0498c	-0.02347257
100	0xbc8557d3	-0.01627723
101	0x3baf638b	0.0053524426
102	0xbb7ee87e	-0.00388959
103	0xbc9732c9	-0.018456833
104	0x3ac533b4	0.0015045316
105	0xbc8427e2	-0.016132299
106	0xbca4632f	-0.020066826
107	0xbc4a5ae1	-0.012350769
108	0xbcab8e68	-0.020941928
109	0xbc7dfc66	-0.015502071
110	0x3cd1c277	0.025605423
111	0x3b873741	0.00412646
112	0x3bd8962c	0.0066096988
113	0xbcd36d54	-0.025808968
114	0xbc9c6adc	-0.019093923
115	0xbc357129	-0.011074343
116	0x3a988fc3	0.0011639524
117	0xbcd78004	-0.02630616
118	0xbc7a9556	-0.0152943935
119	0xbca84ee4	-0.02054543
120	0xbbc3a06c	-0.0059700515
121	0xbc8e881e	-0.01739889
122	0xbc3a4cad	-0.01137082
123	0xbcf183f5	-0.029481867
124	0xbd0300fc	-0.03198336
125	0xbd00ccb4	-0.03144522
126	0xbcdc201e	-0.026870783
127	0xbd22dd87	-0.039762046
128	0x3b24a6e2	0.0025123884
129	0xbcca909c	-0.024727158
130	0x3b67aaeb	0.0035349678
131	0xbc25231d	-0.010079172
132	0xbd215e85	-0.03939678
133	0x3b3131bf	0.0027037708
134	0xbcac2a34	-0.021016218
135	0xbcb3f8cb	-0.02196922
136	0xbd02c892	-0.03192956
137	0xbd0de2ae	-0.034640007
138	0x3a0cc12b	0.00053693604
139	0xbc3fd2f5	-0.011708011
140	0x3baa7e0d	0.0052030147
141	0xbcd74c5d	-0.02628153
142	0x3c77db8c	0.015128028
143	0xbcc57ab9	-0.02410637
144	0xbc209ce4	-0.009803031
145	0xba0286f5	-0.00049792166
146	0x3bd61798	0.0065335743
147	0x3c5144be	0.012772737
148	0x3c618981	0.013765694
149	0xbd055b7d	-0.032557953
150	0xbbe578d4	-0.007002929
151	0xbcd2d6b8	-0.025737152
152	0xbc912d64	-0.01772184
153	0xbd0bde06	-0.034147285
154	0x3c1b467e	0.009477256
155	0xbd05b022	-0.032638676
156	0x3ab61947	0.0013893031
157	0xbb143e6d	-0.0022620216
158	0xbaeb59b6	-0.0017955813
159	0xbcbfbf7d	-0.023406738
160	0x3c7c138f	0.0153855225
161	0xbafa6e32	-0.0019106327
162	0xbb6a4d90	-0.0035751797
163	0xbcee55bb	-0.029093614
164	0x3bb6332e	0.0055603003
165	0xbc0ccecb	-0.008594225
166	0xbc852267	-0.016251756
167	0x3c906c4c	0.017629765
168	0x3a5db256	0.0008457055
169	0xbca14d3f	-0.019690154
170	0xbc9c4ca6	-0.019079518
171	0xbc044b23	-0.008074555
172	0x3b9b7a33	0.004744792
173	0xbc8e6bce	-0.01738539
174	0xbcdc21b9	-0.026871549
175	0xbcb72527	-0.022356583
176	0xbd0a243d	-0.033725966
177	0xbbc2ba57	-0.0059426236
178	0x3c17ed66	0.009272909
179	0xbd020f5d	-0.031752933
180	0x39b7d35e	0.0003506196
181	0x3c19bbbf	0.009383141
182	0x3b0c3e45	0.002139942
183	0xbc2f34dd	-0.010693756
184	0x3c5a49bb	0.013323243
185	0x3c6cb917	0.014448426
186	0x3c2f539e	0.010701088
187	0xbb5d4a09	-0.0033766052
188	0xbbfa9c0f	-0.007647998
189	0x3a3680e4	0.0006961955
190	0xbbff06be	-0.007782786
191	0xbc3b055a	-0.01141485
192	0x3c5df828	0.013547935
193	0x3ca34d0c	0.0199342
194	0xbb976a89	-0.0046208543
195	0xbbe022f6	-0.006840105
196	0x3ab03b2f	0.0013445372
197	0x3a8d4512	0.0010778031
198	0x3c3f5e32	0.011680173
199	0x3c71d0f2	0.014759289
200	0xbd10a692	-0.035315104
201	0xbc869b40	-0.01643145
202	0x3c9fb400	0.01949501
203	0x3c58046a	0.013184646
204	0x3bd7e23f	0.00658825
205	0xbb7597ac	-0.0037474437
206	0xbad0021c	-0.0015869769
207	0xbbfcbe5e	-0.007713123
208	0x3bccf632	0.0062549347
209	0x3cad96a8	0.021190003
210	0x3cd2cdea	0.025732953
211	0x3c8ea288	0.017411485
212	0xbcac81f1	-0.021058055
213	0xbc960bae	-0.018316116
214	0xbc356d26	-0.011073386
215	0x3c67ce23	0.014148268
216	0xbc245802	-0.010030748
217	0xbcbbbae2	-0.022916261
218	0xbbef9fec	-0.0073127653
219	0xbcefd0b5	-0.029274324
220	0xbd185aa0	-0.0371958
221	0xbadf8933	-0.0017054438
222	0xbd087367	-0.03331318
223	0xbcdce794	-0.026965894
224	0xbd458f21	-0.0482322
225	0xbb86a215	-0.004108677
226	0xbaa3d5d0	-0.0012499634
227	0xbc2f8cfa	-0.010714764
228	0xbd19f0e0	-0.037583232
229	0xbd323061	-0.04350317
230	0xbd162536	-0.03665658
231	0x3bf0c050	0.007347144
232	0x3b3e1fcd	0.0029010654
233	0x3c795a66	0.015219307
234	0x3c18d9c3	0.009329262
235	0x3b923698	0.0044620745
236	0xba0f0c9b	-0.00054568955
237	0xbc9bca5b	-0.019017389
238	0xbca82100	-0.020523548
239	0xbcb519ec	-0.022107087
240	0x3c5e0e14	0.013553161
241	0xbc320efb	-0.010867829
242	0xbb888d4e	-0.0041672355
243	0xbc795f0e	-0.015220417
244	0xbbcb7d96	-0.0062100394
245	0xbcacf71e	-0.021113928
246	0xbcac4b2b	-0.021031937
247	0x3b55dc9d	0.0032632716
248	0xbc64a59e	-0.013955502
249	0x3c0e6ddc	0.008693185
250	0xbc827d53	-0.0159289
251	0xbcdb5890	-0.026775628
252	0xbc4f780c	-0.012662899
253	0xbca8bbe8	-0.020597413
254	0xbc8484ee	-0.016176667
255	0xbd06a5c5	-0.032872934

conv1.0.bias f4 [128]
0	0x346908ba	2.170299e-07
1	0xb3e67e96	-1.07332355e-07
2	0xb4513b44	-1.9486203e-07
3	0x331fc1f5	3.7196475e-08
4	0x350b4b21	5.189086e-07
5	0xb5299cd4	-6.318562e-07
6	0xb50e7591	-5.3070204e-07
7	0xb4c027f4	-3.5791857e-07
8	0x34d907dd	4.042512e-07
9	0x348328d6	2.4430364e-07
10	0x3452c184	1.9628175e-07
11	0x33a7f1e4	7.820543e-08
12	0xb2f58c58	-2.8585575e-08
13	0xb3d9358f	-1.0114592e-07
14	0x35028952	4.86286e-07
15	0xb45d455c	-2.0607462e-07
16	0xb5425502	-7.2394334e-07
17	0x34186bd2	1.4195328e-07
18	0xb4031806	-1.2209065e-07
19	0x32b1cf85	2.0699881e-08
20	0x33278c4d	3.901032e-08
21	0x34a024a0	2.982897e-07
22	0x33c31d5a	9.085734e-08
23	0x34421054	1.8073598e-07
24	0xb44fc411	-1.9349706e-07
25	0x34acdf19	3.2199821e-07
26	0xb44a8c26	-1.8863702e-07
27	0x359dfcb7	1.1770961e-06
28	0x3544318e	7.30878e-07
29	0xb302e247	-3.047378e-08
30	0xb53dc00a	-7.068744e-07
31	0xb287e003	-1.5817937e-08
32	0x340c8212	1.3085835e-07
33	0xb3f9c3e5	-1.1630599e-07
34	0x341527b5	1.3891152e-07
35	0xb3247a53	-3.829548e-08
36	0x34b7696c	3.416311e-07
37	0x33dfe62c	1.0426115e-07
38	0x3500b296	4.794359e-07
39	0xb3ca8d84	-9.4320995e-08
40	0xb477307f	-2.302131e-07
41	0x31e553c3	6.6743e-09
42	0x333cfd4d	4.4002537e-08
43	0xb49de931	-2.9413198e-07
44	0x346a44b5	2.1817944e-07
45	0xb305d4a4	-3.115987e-08
46	0x33d9978d	1.0132417e-07
47	0x3403c6b7	1.2272618e-07
48	0xb3136f27	-3.4327197e-08
49	0xb32a4bda	-3.9650196e-08
50	0xb31cd345	-3.651373e-08
51	0x3470fa6c	2.2442845e-07
52	0xb42c52a3	-1.6048811e-07
53	0x342619f8	1.5469402e-07
54	0xb32c0716	-4.0053315e-08
55	0x343dada4	1.7665167e-07
56	0xb3376808	-4.2702624e-08
57	0x33c9d1d1	9.397957e-08
58	0x33c0f466	8.9851525e-08
59	0x33eaf49f	1.09409704e-07
60	0x3283c8c2	1.5341701e-08
61	0xb45a814d	-2.0349871e-07
62	0x32e7b4ca	2.6974153e-08
63	0xb4e7a9ff	-4.315079e-07
64	0xb39517e6	-6.9427e-08
65	0xb510512d	-5.3762307e-07
66	0x343aabcf	1.7385103e-07
67	0xb4733d4d	-2.265344e-07
68	0x32d3828d	2.4623e-08
69	0x33a93d10	7.880783e-08
70	0x35525822	7.8359346e-07
71	0xb30facbb	-3.345188e-08
72	0x3185f801	3.8990042e-09
73	0x351180a9	5.4203934e-07
74	0x33bfb6a0	8.92735e-08
75	0x34336909	1.6708886e-07
76	0x34208626	1.4949964e-07
77	0xb301a83f	-3.0188172e-08
78	0xb401fa05	-1.2105018e-07
79	0xb3668def	-5.3680136e-08
80	0xb3ee21e3	-1.10889026e-07
81	0xb3b64b11	-8.48869e-08
82	0x350d9606	5.2744906e-07
83	0x34ab8335	3.1946698e-07
84	0xb3df3c2e	-1.0395193e-07
85	0x3346ef75	4.6318252e-08
86	0x32b929f7	2.1555918e-08
87	0xb366634d	-5.364136e-08
88	0x348da315	2.6381954e-07
89	0xb303dbc9	-3.0700708e-08
90	0x32280a5d	9.781243e-09
91	0xb3a36f54	-7.6105295e-08
92	0xb4d52dcf	-3.9707672e-07
93	0xb28a0bae	-1.6070626e-08
94	0xb46e26f7	-2.2179653e-07
95	0xb2e3e04c	-2.6528276e-08
96	0xb3961a9c	-6.9897595e-08
97	0x33c9d031	9.397662e-08
98	0xb4709d10	-2.2408881e-07
99	0xb2929875	-1.7065966e-08
100	0xb38eacf3	-6.6438496e-08
101	0xb47cc54a	-2.3541102e-07
102	0xb5252c20	-6.15315e-07
103	0xb4069795	-1.2534868e-07
104	0x348315d2	2.4416528e-07
105	0x346a8a41	2.1843245e-07
106	0x341843c8	1.4180762e-07
107	0xb5040b99	-4.919071e-07
108	0xb4bbdcb4	-3.4992047e-07
109	0xb3c15afc	-9.003813e-08
110	0xb3691f25	-5.4277866e-08
111	0xb42270c7	-1.5128454e-07
112	0x34037782	1.2243802e-07
113	0xb480c249	-2.398322e-07
114	0x33fbc1e5	1.17233675e-07
115	0x3437b651	1.710953e-07
116	0x3407dfbe	1.2654252e-07
117	0xb5ac4035	-1.2833685e-06
118	0x3318e2ca	3.559652e-08
119	0xb49f95ce	-2.9725055e-07
120	0xb3a59f51	-7.712391e-08
121	0xb5a66b79	-1.2399242e-06
122	0xb407c567	-1.264467e-07
123	0xb53b508a	-6.978013e-07
124	0x353bdd2f	6.9984793e-07
125	0xb4f0a605	-4.482428e-07
126	0xb3899f92	-6.408585e-08
127	0x35202eb9	5.9672635e-07

conv1.1.weight f4 [128]
0	0x3f6b5b53	0.91936225
1	0x3f7e2285	0.9927142
2	0x3f6d40f4	0.92677236
3	0x3f5f84b2	0.8731185
4	0x3f63cff2	0.88989174
5	0x3f72678a	0.9468924
6	0x3f6a416b	0.9150607
7	0x3f824b2b	1.017919
8	0x3f6754f7	0.9036402
9	0x3f655139	0.8957706
10	0x3f639acb	0.8890807
11	0x3f510c06	0.8165897
12	0x3f538a01	0.8263245
13	0x3f616cfd	0.8805693
14	0x3f627c35	0.88470775
15	0x3f5e9e44	0.86960244
16	0x3f743377	0.9539103
17	0x3f77c0e7	0.9677872
18	0x3f67f327	0.90605396
19	0x3f5eef50	0.8708391
20	0x3f5b9aec	0.8578327
21	0x3f4e57f1	0.8060294
22	0x3f6012fd	0.87528974
23	0x3f5dea84	0.8668597
24	0x3f51bcdb	0.81928796
25	0x3f63ba2c	0.8895595
26	0x3f69554c	0.9114578
27	0x3f6cbcaf	0.9247541
28	0x3f68b5c2	0.9090234
29	0x3f6fd713	0.9368755
30	0x3f58dcb9	0.84711796
31	0x3f750309	0.95707756
32	0x3f63faf9	0.8905483
33	0x3f61b6f5	0.88169795
34	0x3f89021f	1.0703772
35	0x3f81482e	1.0100152
36	0x3f56b8c8	0.83875704
37	0x3f56a7b6	0.83849657
38	0x3f72a862	0.9478818
39	0x3f57c387	0.84282726
40	0x3f5fe543	0.874592
41	0x3f6ad87a	0.9173657
42	0x3f5ff29e	0.8747958
43	0x3f5c12e0	0.859663
44	0x3f798363	0.97466105
45	0x3f59c2a1	0.85062605
46	0x3f55b9c3	0.83486575
47	0x3f61303a	0.8796421
48	0x3f78531c	0.97001815
49	0x3f5d3353	0.8640644
50	0x3f746e07	0.9548039
51	0x3f5977e6	0.84948575
52	0x3f662d0c	0.89912486
53	0x3f71f1a1	0.9450932
54	0x3f645c8f	0.89203733
55	0x3f5f3270	0.87186337
56	0x3f592873	0.84827346
57	0x3f5d1297	0.8635649
58	0x3f811c4d	1.0086762
59	0x3f67706e	0.9040593
60	0x3f5ae084	0.85498834
61	0x3f678442	0.90436184
62	0x3f729983	0.9476549
63	0x3f6d437f	0.92681116
64	0x3f65cb3a	0.89763224
65	0x3f5b5e2a	0.8569056
66	0x3f72e232	0.94876397
67	0x3f5ee710	0.87071323
68	0x3f59639f	0.84917635
69	0x3f782997	0.9693846
70	0x3f6f572d	0.93492395
71	0x3f65684b	0.89612263
72	0x3f6183ca	0.8809172
73	0x3f6d2ee3	0.9264967
74	0x3f6fb3b8	0.93633604
75	0x3f5dd6e3	0.86656016
76	0x3f59b85c	0.85046935
77	0x3f5418d0	0.8285036
78	0x3f649ef3	0.8930504
79	0x3f7331d6	0.9499792
80	0x3f5d4b5d	0.8644312
81	0x3f67d0cf	0.9055299
82	0x3f6f1fc8	0.9340787
83	0x3f77c6e2	0.96787846
84	0x3f778f07	0.9670262
85	0x3f598544	0.8496897
86	0x3f626be9	0.8844591
87	0x3f5df446	0.86700857
88	0x3f74caea	0.9562212
89	0x3f6946b5	0.91123515
90	0x3f7769ef	0.96646017
91	0x3f53e3ea	0.82769644
92	0x3f6941e8	0.9111619
93	0x3f675ef7	0.9037928
94	0x3f667dd7	0.90035766
95	0x3f811359	1.008403
96	0x3f63e018	0.89013815
97	0x3f6e8deb	0.931853
98	0x3f61c227	0.8818688
99	0x3f628141	0.88478476
100	0x3f6aa6f5	0.91661006
101	0x3f65123f	0.89480966
102	0x3f6cd1e4	0.9250777
103	0x3f60bd15	0.87788516
104	0x3f7b3814	0.98132443
105	0x3f681618	0.9065871
106	0x3f6f48b0	0.9347029
107	0x3f6d040e	0.9258431
108	0x3f5bbf24	0.8583853
109	0x3f665471	0.899726
110	0x3f69d19b	0.9133546
111	0x3f6d2ffe	0.92651355
112	0x3f51e6ff	0.819931
113	0x3f7a8076	0.97852266
114	0x3f5542f0	0.83305264
115	0x3f68ada3	0.9088995
116	0x3f57fe38	0.8437228
117	0x3f636824	0.8883078
118	0x3f532fac	0.82494617
119	0x3f51c698	0.81943655
120	0x3f64d8fc	0.8939359
121	0x3f573554	0.8406575
122	0x3f71bd8b	0.94429845
123	0x3f65bfbf	0.89745706
124	0x3f6ef767	0.93346256
125	0x3f647949	0.89247566
126	0x3f5cb4e4	0.8621352
127	0x3f6b0ed0	0.9181948

conv1.1.bias f4 [128]
0	0xbe41dd29	-0.18932022
1	0xbe0423dc	-0.12904304
2	0xbdb3d667	-0.087811284
3	0xbe58e282	-0.21180156
4	0xbdecd18b	-0.11563405
5	0xbd789688	-0.060690433
6	0xbd4af577	-0.0495505
7	0xbeaa33d1	-0.33242658
8	0xbe592f00	-0.21209335
9	0xbddd6f67	-0.10812264
10	0xbdf6d722	-0.12052752
11	0xbd9ee38f	-0.07758247
12	0xbd813cb5	-0.06310407
13	0xbd934e5f	-0.071926825
14	0xbd7e5268	-0.062090307
15	0xbd9201bc	-0.07129237
16	0xbdf0e0d9	-0.11761636
17	0xbea7831b	-0.32717213
18	0xbdd00924	-0.101579934
19	0xbd8437bc	-0.06455943
20	0xbd9a109a	-0.07522698
21	0xbd294a54	-0.04133065
22	0xbda3aad5	-0.07991568
23	0x3b1aa344	0.002359585
24	0xbda46768	-0.08027536
25	0xbdf96f85	-0.12179474
26	0xbcbc617e	-0.022995707
27	0xbd982f6e	-0.074309215
28	0x3cf734bb	0.030176511
29	0xbdff8e8d	-0.12478361
30	0xbe05e8fd	-0.13077159
31	0xbd8d9a5b	-0.069142066
32	0xbe40db64	-0.18833691
33	0xbeb6e745	-0.3572332
34	0xbea89b77	-0.3293111
35	0xbe38504d	-0.17999382
36	0xbdf576bc	-0.119855374
37	0xbd0f8f13	-0.035048556
38	0xbe4be029	-0.19909729
39	0xbda4c7ba	-0.08045907
40	0xbe6ba2b7	-0.2301129
41	0xbecf6736	-0.4050843
42	0xba563d38	-0.00081725745
43	0xbe7fe5ef	-0.24990056
44	0xbe7ef496	-0.2489799
45	0xbdb896a9	-0.09013111
46	0xbe1f9738	-0.15585029
47	0xbddd6a41	-0.10811282
48	0x3bc5ab83	0.0060324087
49	0xbe1f890d	-0.15579624
50	0xbde0abed	-0.10970292
51	0xbd7aa903	-0.06119634
52	0xbe2cf8e7	-0.16891824
53	0xbe6d0a3a	-0.23148432
54	0xbe9fbe78	-0.31200004
55	0xbe5a6769	-0.2132851
56	0xbdbe7672	-0.092999354
57	0xbd74caf0	-0.05976385
58	0xbec1cef2	-0.378532
59	0xbd7f7d9d	-0.062375654
60	0xbd89c2c4	-0.06726602
61	0xbe3356b2	-0.1751354
62	0xbdd90527	-0.10596686
63	0xbddd1804	-0.10795596
64	0xbd2d0914	-0.042244986
65	0xbe7b5156	-0.24542746
66	0xbea6b675	-0.3256108
67	0xbca136fd	-0.01967954
68	0xbe53ef2d	-0.20696707
69	0xbec7850a	-0.38968688
70	0xbe63a8c6	-0.2223235
71	0xbde3fdf6	-0.111324236
72	0xbd027ef9	-0.03185937
73	0xbe2305a2	-0.15920117
74	0xbd81ef5d	-0.06344483
75	0xbe09095d	-0.13382478
76	0xbda8c45e	-0.08240579
77	0xbe15b4d7	-0.14619766
78	0xbdd807db	-0.10548373
79	0xbeb0e4b0	-0.34549475
80	0xbe5817cf	-0.21102832
81	0xbdf1a8a8	-0.11799747
82	0xbe1bfb9c	-0.152327
83	0x3ccbdd70	0.024885863
84	0xbd863694	-0.06553379
85	0xbc9971a3	-0.018730944
86	0xbdd5cea1	-0.10439802
87	0xbe00dd1d	-0.12584348
88	0xbe8c5641	-0.27409557
89	0xbe3f828f	-0.18702148
90	0xbe9696fc	-0.29412067
91	0xbc333f7e	-0.010940431
92	0xbd0f7156	-0.035020195
93	0xbeb2fc7f	-0.34958264
94	0xbe45e381	-0.19325067
95	0x3ddc63a0	0.107611895
96	0xbd1b8e5c	-0.03797756
97	0xbe461560	-0.19344091
98	0xbd0c74a0	-0.03429091
99	0xbcc45794	-0.023967542
100	0xbe8ecc66	-0.2789032
101	0xbdbaa82c	-0.091141075
102	0xbddb761d	-0.10715888
103	0xbd947e4c	-0.07250652
104	0xbeb9ad2a	-0.36264926
105	0xbdcb740a	-0.09934242
106	0xbcc6ff95	-0.024291793
107	0xbd220b7e	-0.03956174
108	0xbcce5b6e	-0.025190081
109	0xbd905410	-0.07047284
110	0xbde80adf	-0.113301985
111	0xbe1ef537	-0.1552323
112	0xbd8a80bc	-0.067628354
113	0xbe251560	-0.16121435
114	0xbd14eb1e	-0.036357038
115	0xbe2c4112	-0.16821697
116	0xbcd7c789	-0.026340263
117	0xbc86202c	-0.016372763
118	0xbe06025c	-0.13086838
119	0xbe29220a	-0.16516891
120	0xbe0eb7d2	-0.1393731
121	0xbda7c5b9	-0.081920095
122	0xbca1ba40	-0.019742131
123	0xbd256c66	-0.04038658
124	0xbdde0ec3	-0.10842659
125	0xbd8e79f5	-0.06956855
126	0xbe1a5333	-0.150708
127	0xbea2581f	-0.31707856

conv1.1.running_mean f4 [128]
0	0xbb15302f	-0.0022764315
1	0x3b5a83a9	0.0033342636
2	0xbe02e8c2	-0.12784103
3	0x3e115bde	0.14195201
4	0x3a7b4bf2	0.0009586207
5	0x3c7d08fc	0.015444037
6	0xbe331adf	-0.1749072
7	0x3b997577	0.0046831924
8	0xbc58a240	-0.013222277
9	0xbc8837ef	-0.016628234
10	0xbddf9541	-0.1091714
11	0xbad564fd	-0.0016280707
12	0xbe38249a	-0.17982712
13	0xbd833455	-0.06406466
14	0xbd9e2d02	-0.07723428
15	0xbb22ce93	-0.0024842366
16	0xbc4a6f0e	-0.012355579
17	0x3bec958e	0.0072199767
18	0xbdb890ee	-0.09012018
19	0x3dd608cc	0.104508966
20	0xbc5f140e	-0.013615621
21	0xbe40a785	-0.18813904
22	0x3bff261b	0.007786525
23	0x3cb9b3be	0.022668716
24	0x3deb2eb2	0.11483516
25	0x3d84434a	0.06458147
26	0x3dd87c96	0.10570638
27	0xbdfc08ee	-0.12306391
28	0xbd49298f	-0.0491119
29	0xbb8b2f9c	-0.004247619
30	0x3db78c50	0.08962309
31	0xbd7c0370	-0.061526716
32	0xbc9052ab	-0.017617544
33	0xbd25aa7d	-0.040445793
34	0xbadb9d53	-0.001675526
35	0x3a9e5f2c	0.0012082807
36	0x3d46794c	0.04845552
37	0xbe5320ef	-0.20618032
38	0xbdac287b	-0.084061585
39	0xbd4182a0	-0.047243714
40	0xbc6c2e31	-0.01441531
41	0xbb87c49c	-0.0041433107
42	0xbdfa866e	-0.12232672
43	0x3bddfa00	0.006774187
44	0xbc1b2a15	-0.009470482
45	0xbdca508d	-0.09878645
46	0x3dca8e73	0.09890451
47	0x3d57e429	0.052707825
48	0xbb2e8f14	-0.0026635574
49	0xbe0ecd9e	-0.13945624
50	0xbb6b17be	-0.0035872306
51	0xbdbf010c	-0.093263716
52	0xbcde5970	-0.027142256
53	0xbc2f8c6e	-0.010714633
54	0x3c3ded8b	0.011592279
55	0xbc6e842f	-0.014557882
56	0xbd39eae2	-0.045390017
57	0xbd0db85e	-0.034599654
58	0xbbfbcb57	-0.007684152
59	0xbd44f819	-0.048088167
60	0xbe1e22cb	-0.1544296
61	0x3c520797	0.012819192
62	0x3c9e7b80	0.019345999
63	0x3c7c26d9	0.015390121
64	0xbdb6abb0	-0.089194655
65	0xbe343f6c	-0.17602319
66	0xbb04cc46	-0.0020263358
67	0xbd082514	-0.033238485
68	0xbda182bc	-0.07886264
69	0xbd8bc137	-0.06823962
70	0x3d56da5d	0.05245434
71	0x3ddde427	0.10834532
72	0xbcd6db3a	-0.026227582
73	0xbc1ead1b	-0.009684826
74	0xbe95b8fa	-0.29242688
75	0x3a2f518a	0.00066878705
76	0xbd6ab05d	-0.0572971
77	0x3d949065	0.072541036
78	0xbe245a14	-0.16049987
79	0x3c34db18	0.011038564
80	0x3d0d0c1b	0.034435373
81	0xbd3cb945	-0.046075124
82	0xbd1e9f1d	-0.03872596
83	0x3d50fdcb	0.051023286
84	0x3ccdf909	0.025143163
85	0x3ca183fd	0.019716257
86	0x3c8a3eb9	0.016875612
87	0x3d31c04e	0.043396287
88	0xbbe698ef	-0.007037274
89	0x3ce8b89c	0.028408341
90	0xbb968450	-0.0045934096
91	0x3d0e9dcb	0.03481845
92	0x3cd0866e	0.025454726
93	0x3bb42dfb	0.0054986454
94	0xbbf9ad7c	-0.007619558
95	0xba415ae0	-0.0007375907
96	0xbe57e5f4	-0.21083814
97	0x3be16a99	0.0068791625
98	0xbd8bc1bc	-0.06824061
99	0xbe6dd17a	-0.2322444
100	0xbd755c48	-0.05990246
101	0xbd4d6cd3	-0.05015261
102	0xbd86600c	-0.06561288
103	0xbd491404	-0.049091354
104	0xbc5221e3	-0.012825462
105	0x3da267bd	0.07929943
106	0x3a5360a6	0.0008063413
107	0x3c891290	0.016732484
108	0xbe304bd1	-0.17216422
109	0xbca91186	-0.020638239
110	0x3e231ef3	0.15929775
111	0x3cdaea88	0.026723161
112	0xbdc498d3	-0.095994614
113	0x3c20b097	0.009807727
114	0xbe4c0b15	-0.19926102
115	0xbbcce822	-0.0062532583
116	0x3ddc7cce	0.10765992
117	0xbd5c7987	-0.053826835
118	0x3c6e81f5	0.014557351
119	0x3b16a518	0.0022986587
120	0xbdc96985	-0.098345794
121	0x3d2d8ea6	0.04237237
122	0xbd9e29c6	-0.077228114
123	0x3caad4c0	0.0208534
124	0xbd142d88	-0.036176234
125	0x3df8114a	0.121126726
126	0x3c603168	0.013683654
127	0xbc2622d2	-0.010140138

conv1.1.running_var f4 [128]
0	0x40b54280	5.6643677
1	0x40eac07b	7.335996
2	0x41ab6368	21.423538
3	0x41b6a3cc	22.829979
4	0x4129ec1d	10.620145
5	0x418bf14c	17.49282
6	0x41cf7e5f	25.936705
7	0x413081c1	11.031678
8	0x414aea60	12.68222
9	0x4115bc19	9.358422
10	0x41a63bed	20.77926
11	0x417255f5	15.145986
12	0x41c90835	25.129007
13	0x40efea86	7.4973783
14	0x4134563f	11.271056
15	0x411b985a	9.724695
16	0x4104c425	8.297887
17	0x410280d3	8.156451
18	0x417a0810	15.626968
19	0x41d4fc00	26.623047
20	0x4116419b	9.391017
21	0x4200ffb2	32.249702
22	0x414773d7	12.465781
23	0x40f61176	7.6896315
24	0x4185c680	16.721924
25	0x413b1b68	11.694191
26	0x41d03b86	26.029064
27	0x41db9d08	27.451675
28	0x4152a58d	13.165418
29	0x414ce6c0	12.806335
30	0x41401337	12.004691
31	0x4188ecaf	17.115568
32	0x40f8b943	7.772615
33	0x41643ad3	14.264361
34	0x4174f0b9	15.30877
35	0x4108c029	8.546914
36	0x411c3b8e	9.76454
37	0x420fc68e	35.9439
38	0x4177b4a5	15.481603
39	0x40da16ce	6.815284
40	0x416c4717	14.767356
41	0x41345a63	11.272067
42	0x417c02f9	15.750726
43	0x414c5d8a	12.772837
44	0x4111b7fa	9.107416
45	0x418133fd	16.150385
46	0x41b044c6	22.03358
47	0x418d6fd2	17.6796
48	0x41030248	8.188057
49	0x41ae4752	21.784824
50	0x40cb54cd	6.3541017
51	0x41a5783d	20.68371
52	0x410c59af	8.771895
53	0x4125973e	10.349424
54	0x413227a2	11.134676
55	0x410335c9	8.200631
56	0x4149a17c	12.601925
57	0x411714d7	9.442588
58	0x413e0ce9	11.878152
59	0x413439a3	11.264071
60	0x41eea9b7	29.832869
61	0x40f7bce8	7.74181
62	0x4120e553	10.055987
63	0x413e08c9	11.877145
64	0x413114dd	11.067594
65	0x41dfefc0	27.992065
66	0x411ac2a1	9.672517
67	0x40ce4295	6.4456277
68	0x4140a99a	12.041407
69	0x418f21f8	17.891586
70	0x40ea37c6	7.3193083
71	0x41a8685f	21.050962
72	0x40e23a35	7.0696054
73	0x4122a51b	10.165309
74	0x428b7eaf	69.74743
75	0x41075de4	8.4604225
76	0x418c24c0	17.517944
77	0x4182acec	16.334435
78	0x41d67895	26.808878
79	0x413a323b	11.637263
80	0x4133977c	11.2244835
81	0x410154f6	8.083242
82	0x4164d835	14.302785
83	0x41bbce0b	23.475607
84	0x4130cf65	11.050633
85	0x40bd3b03	5.9134536
86	0x41362933	11.385058
87	0x411eb24b	9.918529
88	0x4133f474	11.247181
89	0x40f8624d	7.7619996
90	0x411d5610	9.833511
91	0x413c432d	11.7664
92	0x411decdd	9.870328
93	0x41170da9	9.440835
94	0x41005ce2	8.022676
95	0x4192866e	18.31564
96	0x424b8b4d	50.886036
97	0x4112705c	9.1524315
98	0x417c4b97	15.768455
99	0x4229389c	42.305283
100	0x4150492a	13.017862
101	0x41037556	8.216146
102	0x4106d0b2	8.425951
103	0x4128bf76	10.546743
104	0x4132632b	11.149211
105	0x418bac64	17.459175
106	0x412df3bf	10.872008
107	0x4148b1d0	12.543411
108	0x41b24ebd	22.288446
109	0x410fae7e	8.980101
110	0x4211e797	36.476162
111	0x40db11c1	6.845917
112	0x41935c91	18.420198
113	0x410a26c8	8.634468
114	0x42387c99	46.121677
115	0x4118bfa0	9.546783
116	0x416f4a4c	14.955639
117	0x412eafdd	10.917935
118	0x40fb78a9	7.858479
119	0x41193c72	9.577257
120	0x4148a09e	12.539213
121	0x40cfe067	6.496143
122	0x418429d8	16.520432
123	0x40f82763	7.754808
124	0x41544d3a	13.268854
125	0x41973675	18.90159
126	0x4115979a	9.349512
127	0x4126556f	10.395858

conv2.0.weight f4 [64, 128, 5]
0	0xbd5f0c9e	-0.054455392
1	0x3cad3daa	0.021147568
2	0x3c75ba78	0.014998071
3	0xbbd139b0	-0.0063850507
4	0x3d36a8a3	0.04459442
5	0xbc8ce5ed	-0.01719948
6	0xbc383ce9	-0.011244991
7	0xbce16273	-0.027512765
8	0x3cd46141	0.02592528
9	0xbbbd6b32	-0.005780601
10	0x3c443966	0.0119765755
11	0x38c9590f	9.601015e-05
12	0xbc8a61ac	-0.016892277
13	0x3c463dbc	0.01209968
14	0xbaebcba5	-0.0017989768
15	0xbcf148f1	-0.029453726
16	0x3c74bdf7	0.014937869
17	0xbbc64888	-0.006051127
18	0x3ca68ad1	0.020329865
19	0xbcb723c0	-0.022355914
20	0x3bce44f0	0.006294839
21	0xbd4d0348	-0.050051957
22	0xbba3167d	-0.004977046
23	0xbc1717e3	-0.009222004
24	0x3c28a862	0.010294052
25	0x3cd703bd	0.0262469
26	0xbbb2a995	-0.0054523447
27	0x3c1967f2	0.009363161
28	0x3ba5eca3	0.0050636097
29	0x3c96eee5	0.01842446
30	0x3cb25a7d	0.021771664
31	0x3ccd80b8	0.025085792
32	0xba2e50e6	-0.0006649628
33	0x3bdbef1c	0.0067118537
34	0x3c0c9625	0.008580719
35	0xbd9a1bc9	-0.07524831
36	0xbc839987	-0.016064418
37	0xbc46287c	-0.012094613
38	0x3c20220f	0.009773745
39	0x3bc5f3e7	0.0060410383
40	0xbc382a04	-0.011240486
41	0x3ca3cf4c	0.019996308
42	0x3c66947d	0.014073488
43	0x3a3a081e	0.00070965465
44	0x3c1ae72a	0.009454528
45	0xbbbd0a5d	-0.0057690577
46	0xbd040fa3	-0.032241475
47	0x3b033bde	0.0020024697
48	0x3ac5eb7d	0.0015100088
49	0xb8daae32	-0.000104274965
50	0xbad4aaa9	-0.0016225177
51	0x3baaf559	0.005217236
52	0x3d21922e	0.03944605
53	0x3b2232a6	0.0024749427
54	0xbce22f85	-0.02761055
55	0x3b78362f	0.0037874093
56	0xbcdd6c74	-0.027029254
57	0x3b6bd6d7	0.0035986209
58	0x3a3239fc	0.00067988015
59	0x3ca5ea60	0.02025336
60	0x3c8406ae	0.016116466
61	0x3b909aa7	0.0044129672
62	0xbc9ec7f1	-0.019382449
63	0x3b1e2597	0.0024131292
64	0x3c091d3c	0.008368786
65	0x39b45646	0.00034396554
66	0xbc0be842	-0.008539261
67	0x3cca83d3	0.024721062
68	0xbbabf719	-0.005247962
69	0xbd22dab1	-0.03975934
70	0x3d002f4a	0.0312951
71	0xbc9419a8	-0.01807864
72	0xbc274077	-0.010208241
73	0xbd1300ef	-0.035889562
74	0x3b5bcfbc	0.0033540567
75	0xba076a1b	-0.0005165652
76	0x3b59d168	0.0033236388
77	0x3cc75326	0.02433164
78	0xbc6a3858	-0.01429566
79	0x3c703f0c	0.014663469
80	0xbbf5f20e	-0.007505662
81	0xbd07334e	-0.033007912
82	0x3d538ee0	0.051649928
83	0x3cc3bd59	0.023893999
84	0x3c2ad9de	0.01042792
85	0xbdab703f	-0.083710186
86	0xbd096fc2	-0.033553846
87	0xbba43666	-0.0050113676
88	0x3d197419	0.037464235
89	0xbca5799c	-0.02019959
90	0xbc4f9b02	-0.012671234
91	0xbc07f36e	-0.008297784
92	0xbc943da1	-0.018095793
93	0xbca15cba	-0.019697536
94	0x3be207fc	0.0068979245
95	0x3bccb835	0.006247545
96	0xbab1d868	-0.0013568522
97	0xbc5f599c	-0.013632204
98	0x3c6ea643	0.014566007
99	0x3c382622	0.01123956
100	0xbb971440	-0.0046105683
101	0x3be6ec52	0.0070472145
102	0x3cb2d6b6	0.021830898
103	0xbac1fb27	-0.0014799581
104	0xbc4771e7	-0.0121731525
105	0x3d0e9ea7	0.03481927
106	0x3b36e96b	0.0027910124
107	0x3cde95bb	0.027171006
108	0xbbb03efb	-0.0053786016
109	0xbcc07ffa	-0.023498524
110	0x3cb88c58	0.022527859
111	0x3c9353f8	0.017984375
112	0x3b544bfe	0.0032393928
113	0x3b32e2eb	0.0027295898
114	0x3bca56bf	0.0061748917
115	0xbc858718	-0.01629977
116	0x3cba5425	0.022745201
117	0xbbd3b46a	-0.006460716
118	0x3c93603a	0.01799022
119	0xbb28e1c2	-0.0025769328
120	0xbc7fa605	-0.015603547
121	0xbcb12f6b	-0.021629056
122	0xbb4c0c0e	-0.0031135115
123	0x3cece037	0.028915508
124	0xbc223558	-0.009900413
125	0xbc465a20	-0.012106448
126	0xbc6868e4	-0.014185164
127	0x3d16a03c	0.036773905
128	0x3c9fcbe0	0.019506395
129	0x3affa6f5	0.0019504713
130	0x3d0e9102	0.03480626
131	0x3cdbcfda	0.02683251
132	0xbc3009b8	-0.010744505
133	0x3b1bb06a	0.0023756274
134	0x3ae38d65	0.0017360864
135	0xbcc5af36	-0.024131399
136	0x3c74f62d	0.014951271
137	0xb9d9c5a8	-0.0004153673
138	0xbc576487	-0.013146526
139	0x3b642d55	0.003481706
140	0xbcbfbdfb	-0.02340602
141	0xbc0f6b02	-0.00875354
142	0x3cbadf28	0.022811487
143	0x3cb17d1f	0.021666108
144	0x3b4e0ba7	0.003144005
145	0xbc19d573	-0.009389269
146	0xbd018581	-0.03162146
147	0x39160cd8	0.000143099
148	0x3a96222e	0.0011454278
149	0xbca97ad8	-0.02068846
150	0xbbee44e8	-0.007271398
151	0xbc362685	-0.011117582
152	0x3b72d717	0.0037054473
153	0x3bb2674c	0.005444443
154	0x3b18cf39	0.0023316874
155	0x393fc716	0.00018289345
156	0x3d381ce0	0.044949412
157	0x3c73d898	0.014883183
158	0xbb4d948d	-0.003136906
159	0x3c93fef2	0.018065903
160	0xbd1fec46	-0.039043687
161	0xbd388fc7	-0.04505899
162	0x3ca2816e	0.019837108
163	0xbb19db10	-0.0023476519
164	0x3bfc3350	0.0076965466
165	0xbcc1144d	-0.02356925
166	0xbcfdbd82	-0.030974153
167	0x3ac2fc9a	0.0014876307
168	0x3cd82f13	0.026389634
169	0xbc42a5fb	-0.011880393
170	0xbd7328b5	-0.059364993
171	0xbd24e073	-0.040253114
172	0x3c0dd77c	0.0086573325
173	0xbb972f47	-0.00461379
174	0x3cc49bba	0.024000037
175	0xbd0b1c48	-0.033962518
176	0xbc2a80c5	-0.010406678
177	0x3c9e8367	0.019349767
178	0xbbc212a4	-0.0059226323
179	0xbb140cdb	-0.002259067
180	0xbb42bc22	-0.0029714187
181	0xbcbeb329	-0.02327879
182	0x3c2a65c2	0.0104002375
183	0xbb2283c2	-0.0024797772
184	0x3c8ae5e4	0.016955324
185	0xbb472ce1	-0.003039174
186	0x3bb7d5ec	0.0056102183
187	0xbb4ecadb	-0.0031554017
188	0x3c8fdd0b	0.017561456
189	0xbced6b72	-0.028981898
190	0xbc6d60d5	-0.014488419
191	0x3c7fd3e9	0.015614488
192	0xbb031432	-0.002000105
193	0x3c598a30	0.013277575
194	0x3b6c69e0	0.0036073849
195	0xbcd3813d	-0.025818462
196	0xbaf312a1	-0.001854498
197	0x3cb22747	0.021747245
198	0xbb210b14	-0.0024573253
199	0x3cf2b4d1	0.029627236
200	0xbd30788b	-0.04308371
201	0x3cb0a7a8	0.02156432
202	0x3c88c4b8	0.016695365
203	0x3d317e97	0.043333616
204	0x3b0fa09e	0.0021915804
205	0xbd5297ce	-0.051414303
206	0x3bb3ced3	0.005487302
207	0x3c88e64d	0.016711378
208	0xbd045f0e	-0.032317214
209	0x3b41d643	0.0029577173
210	0x3d4fee44	0.050764337
211	0x3a426d9c	0.0007416846
212	0x3b82f71b	0.0039967424
213	0xbd190171	-0.03735489
214	0x3c4f39de	0.012648074
215	0xbc952988	-0.01820828
216	0xbc185d1e	-0.009299545
217	0x3c91d7fd	0.017803187
218	0x3cb42785	0.0219915
219	0xbd117c51	-0.035518948
220	0xbd3544be	-0.04425501
221	0x3c699df5	0.014258851
222	0x3b99a58d	0.0046889246
223	0x3c0a1e59	0.008430087
224	0xbb9d9386	-0.004808846
225	0x3d1d199a	0.038354494
226	0xbc035617	-0.008016131
227	0xbcdd5d62	-0.027022067
228	0xba0e6c8f	-0.00054330466
229	0xbb8bcefd	-0.0042666183
230	0x3cc955a7	0.024576975
231	0xba28766a	-0.00064263365
232	0xbccea754	-0.025226273
233	0x3c1e5ee6	0.00966618
234	0xbafa0275	-0.0019074219
235	0x3bb4fb29	0.0055231047
236	0x3b2a4cdf	0.002598576
237	0xbd37e233	-0.044893455
238	0x3ce4fe8b	0.027953407
239	0xbc83a120	-0.016068041
240	0xbd83472e	-0.06410061
241	0xbc386125	-0.01125363
242	0x3cb43033	0.02199564
243	0xbc9a122c	-0.018807493
244	0x3c9e3488	0.019312158
245	0xbd30bf42	-0.043151148
246	0xbc903598	-0.01760368
247	0x3d1deff9	0.038558934
248	0xbcadc0b9	-0.021210061
249	0xbcff6b82	-0.031179193
250	0xbc848130	-0.016174883
251	0xbd2b805c	-0.04187046
252	0xbcde096e	-0.027104106
253	0x3b7698dd	0.0037627735
254	0xba636d74	-0.00086756726
255	0xbc151ac4	-0.00910062

conv2.0.bias f4 [64]
0	0x34af0fb2	3.260771e-07
1	0xb2a58aaf	-1.9271594e-08
2	0xb442e79b	-1.8151916e-07
3	0x347af762	2.3373062e-07
4	0xb43a2215	-1.7334999e-07
5	0xb33e93df	-4.437231e-08
6	0x341e58b1	1.4747162e-07
7	0xb32515d7	-3.843692e-08
8	0x34119a77	1.3560371e-07
9	0xb3c7f631	-9.3114416e-08
10	0x340094c5	1.1975051e-07
11	0x332b1b50	3.983888e-08
12	0x3212bc06	8.54107e-09
13	0x371b22fb	9.2468645e-06
14	0x33721ea6	5.637289e-08
15	0x328e99bc	1.6600886e-08
16	0xb28a8e69	-1.6130075e-08
17	0xb2e346fc	-2.6458558e-08
18	0x34760fe3	2.2916315e-07
19	0x32e6ce46	2.6869326e-08
20	0xb1e8dc1d	-6.7771126e-09
21	0x356953b0	8.6921045e-07
22	0xb4c27434	-3.6219865e-07
23	0x32ff5b03	2.9727294e-08
24	0xb3a171da	-7.517856e-08
25	0x32eb6566	2.7403711e-08
26	0xb45211e6	-1.9564285e-07
27	0x34d84adb	4.02876e-07
28	0xb3c0cc70	-8.977884e-08
29	0xb3541dbb	-4.9387136e-08
30	0xb464be76	-2.1303444e-07
31	0xb534c7c5	-6.734593e-07
32	0xb3301099	-4.099329e-08
33	0xb0c9a210	-1.4670736e-09
34	0xb28ad8b8	-1.6163867e-08
35	0xb5148337	-5.532524e-07
36	0x35199d3b	5.722574e-07
37	0x33b17e6a	8.2651994e-08
38	0x32320f35	1.0364421e-08
39	0x31b36af8	5.2217466e-09
40	0x343cc989	1.7582182e-07
41	0xb3a7caa8	-7.8134065e-08
42	0x3363a307	5.300083e-08
43	0xb33d830a	-4.412417e-08
44	0x34d155bd	3.8991666e-07
45	0x340fd256	1.3394433e-07
46	0x328c9fd8	1.6370834e-08
47	0x311ec1b4	2.3102134e-09
48	0x3349c43e	4.697744e-08
49	0xb3d2584b	-9.7949474e-08
50	0x329e5b29	1.8435076e-08
51	0x32da853d	2.543913e-08
52	0x3498d24d	2.846522e-07
53	0xb3e4258a	-1.0623906e-07
54	0x333cc93d	4.3955186e-08
55	0x329a09f2	1.7932482e-08
56	0x332df341	4.050094e-08
57	0x33c20590	9.034841e-08
58	0xb35bf47e	-5.1212275e-08
59	0x3247754c	1.1609995e-08
60	0xb3e80ba4	-1.0805459e-07
61	0x344d4e01	1.912049e-07
62	0xb306c3b3	-3.1377294e-08
63	0xb5d635b8	-1.5959877e-06

conv2.1.weight f4 [64]
0	0x3f1f32c8	0.6218686
1	0x3f202472	0.6255561
2	0x3ee7560a	0.4518283
3	0x3f2424f3	0.6411888
4	0x3f1d2993	0.6139156
5	0x3f1feb4d	0.62468415
6	0x3f1f1569	0.62142044
7	0x3f18e394	0.59722257
8	0x3f1d494a	0.61439955
9	0x3f1089d8	0.5646033
10	0x3f218fdd	0.6311014
11	0x3f239ca8	0.63910913
12	0x3f1f7419	0.62286526
13	0x3f85c6c5	1.0451285
14	0x3f25ba9f	0.64737886
15	0x3f24ca30	0.64371014
16	0x3f1ab412	0.60431015
17	0x3f124f83	0.57152575
18	0x3f209063	0.62720317
19	0x3f1d4c44	0.614445
20	0x3f255e62	0.6459714
21	0x3fa95f3e	1.3232191
22	0x3f0cb8c2	0.5496942
23	0x3f0a794d	0.5409134
24	0x3f187706	0.59556615
25	0x3f2549b3	0.6456558
26	0x3f0ef456	0.5584158
27	0x3eeefcad	0.4667715
28	0x3f1c09cb	0.6095244
29	0x3eee6fd9	0.46569708
30	0x3eea6034	0.45776522
31	0x3edee122	0.43531138
32	0x3f08bd6e	0.53414047
33	0x3eecd2f7	0.46254703
34	0x3f1e8a91	0.61930186
35	0x3f147940	0.5799751
36	0x3f1225cf	0.5708894
37	0x3f1e0ae2	0.61735356
38	0x3f1ffa29	0.6249109
39	0x3f1fdf49	0.6245008
40	0x3f38742a	0.7205225
41	0x3f233623	0.6375448
42	0x3f21462b	0.6299769
43	0x3f1f2cf9	0.62178
44	0x3f20a0a2	0.62745106
45	0x3f1536d2	0.58286774
46	0x3f1ab744	0.6043589
47	0x3f14e7ee	0.58166397
48	0x3f176bdc	0.59148955
49	0x3f212ae3	0.62956065
50	0x3f18d740	0.59703445
51	0x3f242c59	0.6413017
52	0x3f23ee56	0.64035547
53	0x3f1bc2d0	0.60844135
54	0x3f22539c	0.6340883
55	0x3f20ab77	0.62761635
56	0x3f0e02c2	0.5547296
57	0x3f19fdbd	0.601528
58	0x3f240bb2	0.64080346
59	0x3f16fd4b	0.58980244
60	0x3f1c24b6	0.60993516
61	0x3f1c55d2	0.6106845
62	0x3f16f153	0.5896198
63	0x3f03e5e8	0.51522684

conv2.1.bias f4 [64]
0	0xbec96f34	-0.39342654
1	0xbecfa73d	-0.4055728
2	0xbeb9c5e2	-0.36283785
3	0xbed6ffec	-0.41992128
4	0xbec3d800	-0.38250732
5	0xbec88ac9	-0.39168385
6	0xbeca3daa	-0.3950017
7	0xbeb7472f	-0.35796496
8	0xbec50551	-0.3848062
9	0xbeb9aa5a	-0.3626278
10	0xbece4096	-0.4028365
11	0xbed18af8	-0.40926337
12	0xbec31781	-0.3810387
13	0xbc8a40c6	-0.01687659
14	0xbeccbc88	-0.39987588
15	0xbed57095	-0.41687456
16	0xbec45f2b	-0.38353857
17	0xbec48f39	-0.3839052
18	0xbed5ac34	-0.41732943
19	0xbec4c5bb	-0.38432106
20	0xbed863ce	-0.42263645
21	0xbd38082b	-0.044929665
22	0xbebe4bf0	-0.3716731
23	0xbebe8dd7	-0.3721759
24	0xbec6b4d8	-0.38809848
25	0xbeccac42	-0.39975172
26	0xbeb5de91	-0.35521367
27	0xbe9d87da	-0.3076771
28	0xbec92883	-0.3928872
29	0xbec78ccc	-0.38974607
30	0xbec565b0	-0.38554144
31	0xbe906653	-0.28203067
32	0xbec7c488	-0.3901713
33	0xbec558d4	-0.38544333
34	0xbec56e8e	-0.3856091
35	0xbebc0960	-0.36725903
36	0xbebe164f	-0.37126395
37	0xbed2e46f	-0.41189906
38	0xbec8278a	-0.39092666
39	0xbed60673	-0.41801795
40	0xbe0ef3d0	-0.13960195
41	0xbed0aafc	-0.4075545
42	0xbed0c92f	-0.4077849
43	0xbecdbdf1	-0.40183976
44	0xbecc855f	-0.39945504
45	0xbebde38f	-0.37087676
46	0xbec37cbd	-0.38181105
47	0xbeb5d998	-0.35517573
48	0xbecc6bb0	-0.3992591
49	0xbed186cd	-0.40923157
50	0xbebebcab	-0.37253317
51	0xbed51d79	-0.41624048
52	0xbed30e6c	-0.4122194
53	0xbeb8758e	-0.36027187
54	0xbecb0667	-0.39653322
55	0xbed6249c	-0.41824806
56	0xbeb28c71	-0.34872773
57	0xbec0de05	-0.37669387
58	0xbed8ab52	-0.42318207
59	0xbec7e11f	-0.3903894
60	0xbec1a8c2	-0.37824064
61	0xbec96d77	-0.39341328
62	0xbebdcaac	-0.3706869
63	0xbe2a2783	-0.16616635

conv2.1.running_mean f4 [64]
0	0xbe96b708	-0.29436517
1	0xbeae3a0b	-0.34028658
2	0xbec7f670	-0.39055204
3	0xbe97354e	-0.29532856
4	0xbe94d6b2	-0.2907005
5	0xbe9d35f2	-0.3070522
6	0xbebd1ffb	-0.36938462
7	0xbe9f4a07	-0.31111166
8	0xbea0a24a	-0.31373817
9	0xbebc5983	-0.36787042
10	0xbe90becf	-0.28270575
11	0xbea25b0b	-0.31710085
12	0xbe8fcfe4	-0.28088295
13	0xbe2aa673	-0.16665058
14	0xbe9103de	-0.28323263
15	0xbe9a0f60	-0.30089855
16	0xbe97682b	-0.2957166
17	0xbea6ed5e	-0.32602972
18	0xbe93f677	-0.28898975
19	0xbeaa7059	-0.3328884
20	0xbeb72a80	-0.35774612
21	0xbe06a7f6	-0.1315001
22	0xbece921a	-0.40345842
23	0xbebb5e03	-0.36595163
24	0xbeba5044	-0.36389363
25	0xbe9aaae9	-0.3020852
26	0xbeb9272e	-0.36162704
27	0xbeedae0e	-0.46421856
28	0xbe9931dd	-0.29920855
29	0xbecee1fa	-0.4040678
30	0xbee45766	-0.4459793
31	0xbf899205	-1.0747687
32	0xbed11840	-0.40838814
33	0xbf1c41be	-0.61037815
34	0xbe9f714c	-0.31141126
35	0xbea2d4a0	-0.31802845
36	0xbeb49181	-0.3526726
37	0xbea579e0	-0.32319546
38	0xbe9d2abe	-0.30696672
39	0xbea81f3a	-0.32836324
40	0xbf841c30	-1.0321102
41	0xbe8265ab	-0.25468192
42	0xbea0c9e1	-0.3140402
43	0xbe82f96b	-0.25580916
44	0xbe94c336	-0.29055184
45	0xbe90aa14	-0.2825476
46	0xbe86efe5	-0.263549
47	0xbe9d6d71	-0.3074756
48	0xbec552da	-0.38539773
49	0xbeb06621	-0.34452918
50	0xbeaa6939	-0.33283404
51	0xbe987358	-0.297755
52	0xbeb1f6b7	-0.3475854
53	0xbe9a1a47	-0.30098173
54	0xbea59c10	-0.3234563
55	0xbe9d1ed0	-0.3068757
56	0xbea5e4c0	-0.32401085
57	0xbe949116	-0.29016942
58	0xbea5ef57	-0.32409164
59	0xbeb9ccb2	-0.36288983
60	0xbea1b63e	-0.31584352
61	0xbeb175f4	-0.34660304
62	0xbea80897	-0.32819054
63	0xbf5418b5	-0.828502

conv2.1.running_var f4 [64]
0	0x405f0af4	3.4850435
1	0x4077557a	3.864592
2	0x40047e30	2.0702019
3	0x405c53a0	3.442604
4	0x405fb897	3.4956415
5	0x405b83b3	3.4299133
6	0x406cf8a6	3.7026763
7	0x405f662f	3.4906118
8	0x4069e73a	3.654738
9	0x4071f701	3.780701
10	0x4072c9b3	3.7935607
11	0x407ddafe	3.9664912
12	0x406af43f	3.6711576
13	0x3f16527a	0.587196
14	0x40682534	3.6272707
15	0x406c5f25	3.6933072
16	0x4055cb8d	3.3405488
17	0x404d42ec	3.2072096
18	0x407b0a8c	3.9225187
19	0x407386cd	3.8051026
20	0x406c944e	3.6965518
21	0x3f0815c0	0.5315819
22	0x40708c21	3.7585528
23	0x4064eb84	3.5768747
24	0x408fa1e2	4.488511
25	0x407d0e67	3.954004
26	0x409189d9	4.548077
27	0x403394d6	2.8059592
28	0x405eecf7	3.4832132
29	0x401a3430	2.4094353
30	0x40065317	2.0988214
31	0x407e7da0	3.9764175
32	0x402e6072	2.7246366
33	0x40235287	2.551912
34	0x406b0bc1	3.6725924
35	0x4056604f	3.3496282
36	0x405c08e0	3.4380417
37	0x40539b32	3.3063474
38	0x406c82de	3.6954875
39	0x408106be	4.032073
40	0x405a5ac4	3.41179
41	0x406d1363	3.7043083
42	0x4075ab0a	3.8385644
43	0x405dc00c	3.4648466
44	0x4067a920	3.6196976
45	0x40510148	3.2657032
46	0x40599287	3.3995683
47	0x407c7ed5	3.9452412
48	0x405c00df	3.4375532
49	0x406e3c4a	3.7224298
50	0x4065906d	3.58694
51	0x407086da	3.7582307
52	0x4068167e	3.6263728
53	0x406bcdb3	3.68443
54	0x407db06b	3.9638927
55	0x4071eab7	3.7799509
56	0x405987da	3.3989167
57	0x405bdd2c	3.4353743
58	0x4089bc04	4.304201
59	0x4059d38a	3.4035363
60	0x40843af2	4.1321955
61	0x4075874f	3.8363836
62	0x406398e6	3.5562072
63	0x40939416	4.611827

embedding.1.weight f4 [16, 64]
0	0xbd236fa8	-0.039901406
1	0x3d81f6f0	0.06345928
2	0x3dcee33e	0.10101937
3	0xbd8f5afc	-0.06999776
4	0xbca16ea8	-0.019706085
5	0xbda85a96	-0.08220403
6	0x3de5b40a	0.1121598
7	0xbd73faec	-0.05956547
8	0xbd1f4008	-0.038879424
9	0xbcb39280	-0.021920443
10	0x3d1ac6e8	0.037787348
11	0x3d8dabf2	0.069175616
12	0xbdab8a90	-0.08376038
13	0x3cdb7ec0	0.026793838
14	0x3da7cc78	0.08193296
15	0x3dfff96e	0.12498747
16	0x3cfab540	0.030604005
17	0xbdb689e6	-0.08913021
18	0x3bacba40	0.005271226
19	0xbd2eead0	-0.042704403
20	0xbc8f42e0	-0.017487943
21	0xbd2e6f60	-0.042586684
22	0x3daa533a	0.083166555
23	0xbcd35528	-0.025797442
24	0xbdddb4ae	-0.108254775
25	0x3d884a46	0.066547915
26	0x3de9686e	0.113968715
27	0x3dee8c8c	0.11647901
28	0xbd6ac8b8	-0.057320327
29	0xbdd6d120	-0.10489106
30	0xbcb67d98	-0.022276685
31	0x3d2dd9c0	0.04244399
32	0x3ddc4e32	0.10757102
33	0xbbb815a0	-0.0056178123
34	0x3d03d634	0.032186702
35	0x3d97914c	0.0740076
36	0xbbc93420	-0.006140247
37	0x3d7959b8	0.060876578
38	0xbd96b18a	-0.07358082
39	0x3d9bedba	0.07613702
40	0xbd3b6b94	-0.04575689
41	0xbdb56eaa	-0.08858998
42	0x3d85ba58	0.06529683
43	0xbd1a6bbc	-0.0377004
44	0x3debdc3a	0.11516614
45	0x3c974728	0.018466547
46	0xbd0c5408	-0.034259826
47	0x3bb498a0	0.0055113584
48	0xbdb6b476	-0.08921139
49	0xbd057df8	-0.032590836
50	0x3cd87030	0.026420683
51	0x3d9037d6	0.070419
52	0x3c9d9108	0.019234195
53	0xbccb0178	-0.024780974
54	0xbdc07780	-0.09397793
55	0xbdb77acc	-0.089589685
56	0xbd961196	-0.07327573
57	0xbd206ec8	-0.03916815
58	0x3da89054	0.082306534
59	0xbd2b95a4	-0.041890755
60	0x3d71fd68	0.059079558
61	0xbd8a8f86	-0.06765656
62	0xbccc6920	-0.024952471
63	0xbda8251a	-0.082102016
64	0xbd3416b4	-0.043966964
65	0x3d63a1d8	0.055574268
66	0x3dbd564e	0.09244977
67	0x3bf103a0	0.0073551685
68	0xbc0aa550	-0.008462265
69	0xbdd4ca5e	-0.10390161
70	0xbdb3fb38	-0.087881505
71	0x3dabb6a4	0.08384445
72	0xbddc07e4	-0.107436925
73	0xbdf5c212	-0.119999066
74	0xbda7b0a0	-0.081879854
75	0x3b826ac0	0.0039800107
76	0x3da8e654	0.082470566
77	0xbd78d5ec	-0.060750887
78	0xbd59bb3c	-0.053157076
79	0x3df8585a	0.12126227
80	0x3d66dd94	0.056363657
81	0x3dcf6a4e	0.10127698
82	0xbd93962a	-0.07206376
83	0xbd67bb8c	-0.056575343
84	0x3dc167e0	0.09443641
85	0xbbcf9120	-0.006334439
86	0x3daf3e92	0.08556856
87	0x3df1923a	0.11795469
88	0x3d1d0c00	0.038341522
89	0x3df08b38	0.11745304
90	0xbdf8a250	-0.12140334
91	0xbd9c6244	-0.0763593
92	0xbdf824e4	-0.12116411
93	0xbd0acdc0	-0.033887625
94	0xbca803c8	-0.020509616
95	0x3d4bff9c	0.049804315
96	0x3da2b092	0.07943834
97	0xbdac8ea6	-0.084256455
98	0xbd653b20	-0.05596459
99	0xbba1b640	-0.004935056
100	0xbd148a5c	-0.036264762
101	0xbdc6aaca	-0.09700544
102	0x3ce626c8	0.028094664
103	0x3d855ea6	0.065121934
104	0xbdc3cf68	-0.09561044
105	0x3d93dc3c	0.07219741
106	0x3db95264	0.09048918
107	0x3cc84b98	0.024450108
108	0xbda97d66	-0.08275871
109	0xbdf12dc8	-0.1177631
110	0xbba56660	-0.0050476044
111	0x3ddeaece	0.10873185
112	0xbd5e4fcc	-0.05427532
113	0xbd2c40b4	-0.042053893
114	0x3db05c50	0.08611357
115	0x3cb75510	0.022379428
116	0x3d672c10	0.056438506
117	0x3dba0f7e	0.09084986
118	0xbd298a24	-0.041391507
119	0x3b3bf380	0.0028679073
120	0xbdf63592	-0.120219365
121	0x3dfa7898	0.12230033
122	0x3dc8b600	0.09800339
123	0x3d0b1c18	0.03396234
124	0x3da6ce16	0.081447765
125	0xbc85c908	-0.01633121
126	0xbcf06760	-0.029346168
127	0x3aff6580	0.0019485205
128	0x3d4cc08c	0.049988315
129	0x3b8a4400	0.004219532
130	0x3d563a0c	0.05230145
131	0x3d9ce364	0.07660559
132	0x3d0364c0	0.032078505
133	0x3d94e590	0.07270348
134	0xbcd28ed0	-0.025702864
135	0x3dfea38c	0.12433538
136	0xbdc0ddde	-0.09417318
137	0x3d2030e8	0.03910914
138	0xbc071840	-0.008245528
139	0xbce55350	-0.027993828
140	0x3d25fb8c	0.040523097
141	0xba46ed00	-0.00075884163
142	0xbdc8a1c4	-0.09796479
143	0x3d66df60	0.05636537
144	0xbd1fb874	-0.038994268
145	0xbd89e07c	-0.0673227
146	0xbded3f98	-0.11584395
147	0xbda3a796	-0.07990949
148	0xbd1a9224	-0.037737027
149	0x3ce819e8	0.028332666
150	0xbde7aeda	-0.11312647
151	0x3d882230	0.06647146
152	0xbda81d46	-0.082087085
153	0xbdabea9c	-0.083943576
154	0x3d11ae50	0.035566628
155	0x3da7c2fa	0.08191486
156	0x3c0ecaf0	0.008715376
157	0xbd8ee20c	-0.06976709
158	0x3dcde5c4	0.1005359
159	0x3d857c6a	0.06517871
160	0x3dc39ac4	0.095510036
161	0xbc924918	-0.01785712
162	0xbd87bce2	-0.066278234
163	0xbce8c550	-0.028414398
164	0x3dcd8776	0.10035603
165	0x3ce12650	0.02748409
166	0xbcefcba8	-0.029271916
167	0xbde0d73c	-0.10978553
168	0xbc6ff3c0	-0.014645517
169	0x3d8872cc	0.06662521
170	0x39ae6e00	0.00033269823
171	0xbddba430	-0.10724676
172	0x3d83fa56	0.06444232
173	0xbd3e6d6c	-0.04649107
174	0x3db01c2a	0.08599122
175	0x3d6cb140	0.057786226
176	0x3d144fd4	0.036208943
177	0x3c82b0a0	0.015953362
178	0xbd9e0910	-0.07716572
179	0x3d827ab4	0.0637106
180	0xbdeda228	-0.116031945
181	0x3dd028e6	0.10164051
182	0xbdf216e8	-0.11820775
183	0xbd8b881a	-0.06813069
184	0xbdb3c746	-0.08778243
185	0xbd9d52a6	-0.076817796
186	0xbdf3028c	-0.1186572
187	0xbbd55640	-0.006510526
188	0xbc3226f0	-0.010873541
189	0x3d6494a8	0.055805832
190	0x3d18d0d8	0.037308544
191	0x3d321328	0.0434753
192	0xbb88f360	-0.004179403
193	0xbd853b74	-0.065054804
194	0xbd153e60	-0.03643644
195	0x3cf2bf08	0.029632106
196	0xbdd16ac2	-0.102254406
197	0x3d4e7330	0.05040282
198	0xbd0655c4	-0.032796636
199	0x3d2ccb64	0.042186156
200	0xbd805112	-0.06265463
201	0xbb2aa180	-0.0026036203
202	0xbb98ab20	-0.0046590716
203	0xbd8b32b0	-0.06796777
204	0xbdd26e96	-0.10274999
205	0x3dedac42	0.11605121
206	0x3cdd0aa0	0.026982605
207	0xbd57b1bc	-0.052659735
208	0x3d43784c	0.047722146
209	0xbda6756a	-0.08127864
210	0xbcbb5560	-0.022867858
211	0x3b2f19c0	0.002671823
212	0xbb886420	-0.0041623265
213	0xbc3c2170	-0.0114825815
214	0xbdb8f4f0	-0.09031093
215	0xbc67c520	-0.014146119
216	0x3d53baf0	0.05169195
217	0x3d4c31e8	0.04985228
218	0xbd64edd8	-0.055890888
219	0xbb90a040	-0.0044136345
220	0xbdd8d718	-0.10587901
221	0x3d259228	0.04042259
222	0xbab38d80	-0.0013698786
223	0x3d57746c	0.052601263
224	0x3db21ba0	0.08696675
225	0x3dc57bc0	0.09642744
226	0x3d2601c0	0.040529013
227	0xbd8e243e	-0.069405064
228	0xba186900	-0.0005813986
229	0x3c757940	0.0149825215
230	0x3d8c76d4	0.06858602
231	0x3dbb64d2	0.09150089
232	0x3db63044	0.08895925
233	0xbde684b8	-0.11255783
234	0x3d1f5428	0.038898617
235	0x3ddd5bee	0.1080855
236	0xbd8f5dc2	-0.07000305
237	0xbdf17b34	-0.11791077
238	0x3c9b1cc8	0.018934622
239	0xbdc35cde	-0.095391974
240	0x3d7ad7e4	0.061241046
241	0xbde1c030	-0.11022985
242	0x3da44d96	0.08022611
243	0x3d0e3ba4	0.034724846
244	0xbc5c1ed0	-0.013435081
245	0x3d35f394	0.044421747
246	0x3dd26c42	0.10274555
247	0x3d84c8b4	0.064835936
248	0x3dec9ae8	0.115529835
249	0x3d0cded4	0.034392193
250	0xbd29567c	-0.041342244
251	0xbd9ca580	-0.07648754
252	0xbd7d72c8	-0.061877042
253	0xbdf298e6	-0.11845569
254	0xbda88a0e	-0.08229457
255	0x3dbf1654	0.093304306

embedding.1.bias f4 [16]
0	0xbdd053ca	-0.101722315
1	0x3cdc0d80	0.026861906
2	0xbd976e52	-0.07394089
3	0x3de08aac	0.109639496
4	0x3de00880	0.10939121
5	0x3da5219a	0.080630496
6	0x3cf58290	0.029969484
7	0x3c8da928	0.017292574
8	0xbdb86f40	-0.09005594
9	0xbd1aae70	-0.037764013
10	0xbda31a76	-0.079640314
11	0x3d2c2484	0.04202701
12	0xbd64f1a8	-0.055894524
13	0x3d1df3d8	0.038562626
14	0x3dc3aeb4	0.09554806
15	0xbd775dcc	-0.060392186

classifier.0.weight f4 [1, 16]
0	0xbd88dcac	-0.06682715
1	0xbe49b9b6	-0.1969975
2	0x3e3e809a	0.18603745
3	0xbe39c456	-0.18141302
4	0x3e591058	0.21197641
5	0xbddf1710	-0.10893071
6	0x3bc5e200	0.006038904
7	0xbe55246c	-0.20814675
8	0xbdfc2054	-0.123108536
9	0xbd2819a8	-0.041040093
10	0x3e4148b0	0.18875384
11	0xbdebd5fc	-0.11515424
12	0x3e088410	0.13331628
13	0xbe6cb89e	-0.23117301
14	0xbd4b32a0	-0.049608827
15	0xbe49fbbc	-0.19724935
